data/params.npz (npz, 637046 bytes, 4 tensors)

W0 f8 [100, 784]
00000000: 8a7e bf99 8a9e a4be e255 4dfd 65db a73e
00000010: 3099 da8e ab4f a83e 5efe e471 f653 9c3e
00000020: 3865 e298 22e1 92be 4829 738f 0d43 88be
00000030: 623c 146b 3e28 aabe 9c85 364c f446 a3be
00000040: f8d3 2af6 d1c0 97be c570 c75d 9cc0 a0be
00000050: d8da ed5d 3193 a93e 9852 9ca4 5f1e 9cbe
00000060: 986c 017d dc48 8c3e 68b3 f2de ae4c acbe
00000070: 08a3 4fed 97a9 79be 7c8f 21e3 c8ee 93be
00000080: dc45 e951 f6be aabe da63 6618 bfa0 9bbe
00000090: 589c d023 19b6 903e 84d1 f634 6b70 a6be
000000a0: 50f1 354e 2bf7 a6be 68f7 4736 1a2d a9be
000000b0: b8cd 78ac 2c6b 953e c006 1450 67a3 a03e
000000c0: 13cc b976 399a a43e 425d 2bc3 d2f1 9fbe
000000d0: cc9f 5dca 664c a4be 7216 91ba d3a8 9e3e
000000e0: 48fe 6c58 d26b aa3e e155 2f43 fd1b a73e
000000f0: 5624 0c17 22bd a53e 9c71 f4e6 7c82 a13e
00000100: 64a0 9782 ae39 8d3e 607e 7931 1ac8 a7be
00000110: 4656 6663 bd6a 903e 082b 25f0 bd1e a53e
00000120: 2457 a550 32d3 86bf 1c34 072b 1a18 9cbe
00000130: bad7 8572 a6a9 993e ce00 5e51 0d73 b03e
00000140: 8640 f78a ed9e a33e 9c41 2af5 27cb a7be
00000150: 54d0 069e 8833 853e e03a 0f2d 448a b03e
00000160: 647e f280 fb06 803e 84ea 1d1e 59f8 923e
00000170: 5a1d 99b1 5e28 9e3e 1a17 20ae 32b7 a13e
00000180: bcd7 6966 98d2 a13e 2891 051b 8e4b 993e
00000190: 1417 8d70 38a8 843e 2a5c c594 3164 a7be
000001a0: 3b53 af76 3e2d a7be 7b77 9acb 604c a93e
000001b0: e54f 7b95 42e9 a2be 8ce5 d33c c235 a13e
000001c0: 46e6 8a04 053e 96be acdd 6018 7916 9bbe
000001d0: 949b c5cf 80ef 9d3e 30d7 b05d 3eef 88be
000001e0: f802 0fac d535 813e 800c 63fb 5f2b 90be
000001f0: 04aa 063c a6c5 923e 0830 5305 c755 823e
00000200: 43a3 d67e e49c 8dbf cde8 20ab 0127 99bf
00000210: fed4 e318 1220 9ebf 8834 a013 3bf5 a7bf
00000220: 2bd6 056a 4e3b b0bf 81e1 7e27 8e1e bbbf
00000230: f49f a534 e708 a0bf 1cd9 6dd6 db77 0c3f
00000240: 9272 a78b 3b15 95be c361 0c47 a8e2 5b3f
00000250: 511c 184f a19d 5a3f 2b3c d854 9920 4cbf
00000260: 2c7a e2d7 ce94 64bf 3800 faf4 0eb8 94bf
00000270: caff a040 b446 80bf bcc2 db49 3145 a33e
00000280: da1d 4cd2 1f62 a13e 62db 931b 6ede af3e
00000290: def2 e1c4 8706 963e 9300 f288 c152 a1be
000002a0: 0e7c f3a3 e6b4 96be 9680 c64c 5fed 9b3e
000002b0: 2077 3e3d 50a1 65be 0603 43cb cdbd abbe
000002c0: 42ab 898b e749 903e 90da 4400 c23e 92be
000002d0: 8093 2903 81e8 87bf 84a4 b88b 0faa 95bf
000002e0: 83ae a13d a443 bbbf 5073 a57f 74d6 c6bf
000002f0: 2713 f5a0 717c b1bf a90c 7a01 6365 7ebf
00000300: 5b6a 6759 30d5 babf f0e5 38e9 0c5f c7bf
00000310: 4d52 621c 41e6 a2bf f838 2b2b a59f c43f
00000320: 3092 ce00 b2d0 d13f 7886 ed52 cc4f be3f
00000330: b75f 503e f028 a23f a9fa 099a fcb9 993f
00000340: e7e3 4f16 2d1f 9a3f 6a5e 9e4f ccb2 5b3f
00000350: 93db 6cc1 9881 9abf 7bf7 3bd7 6300 b7bf
00000360: 33d9 0516 789d 49bf 943c 402b 5ac9 adbe
00000370: b686 2080 a32f 963e f8dd 1ba0 a880 a5be
00000380: 2edd 32ea 3eb4 a03e 7353 4263 ce6d a0be
00000390: de01 4e2d e49b a9be 0aa6 ef08 6d03 a9be
000003a0: 30f6 8c4a ac41 8e3e 66b2 2321 55ff 51bf
000003b0: 9173 e25b a3b3 9ebf 9d07 2c4f 4365 9ebf
000003c0: 3673 bbe2 f9de b0bf db51 270d 7ab9 babf
000003d0: 14f7 7ab9 2d17 82bf d1c5 01d4 cfff 82bf
000003e0: 5f8e bcaa 9a0f a03f 8d06 d8d9 a2b3 9dbf
000003f0: e9dc e907 ecb7 aabf 4ce1 2f35 b458 b23f
00000400: 0be4 61e5 7f4c ba3f 3e59 64de 1e93 be3f
00000410: 7e86 aaa6 8258 bf3f fe8d 9103 53fd c83f
00000420: d439 d421 3d11 a13f d592 6f6e cc1a a33f
00000430: b63c 7ba0 235f 9d3f b1a5 e67d 7296 83bf
00000440: 9306 b16c 1138 72bf b3ce 45b0 6d94 a9be
00000450: 40d0 f09e 92ed af3e d282 7551 689f aabe
00000460: cc98 52a4 8d5a aa3e 3b32 5dd8 89c3 a9be
00000470: e3b8 7d38 8b0e ab3e 50c1 d230 45d2 72be
00000480: 839d ba34 b811 a2be 1c2b 1c4b 4655 83bf
00000490: 4575 ad1c d8c1 9dbf 4807 67a8 5ad0 97bf
000004a0: bb01 340a d6e6 92bf 7bf8 ac4e a08b 8dbf
000004b0: 0c5e bdff d04b b33f 5574 04f9 eee0 ae3f
000004c0: 951f 137e 8028 783f f37b b3de 52a7 dcbf
000004d0: b424 0d12 7509 e0bf fef5 3c09 7dbb d1bf
000004e0: 8c39 4efd 8421 423f 940e 13fd 284b dc3f
000004f0: e20d dab8 6200 e23f 56a9 5866 54c1 cf3f
00000500: a398 2284 274f 8dbf 9a53 fc41 8581 95bf
00000510: 7cdf d8f2 4445 743f 111e 419d f216 93bf
00000520: a326 b712 8057 7b3f df8f 9e8c 9d3c 6abf
00000530: 20b0 60a5 b710 383f 285a 30e6 384f 773e
00000540: 22bf 2e5c 14bb 91be de4b 75a5 c692 ab3e
00000550: beb1 30a3 c4c2 9a3e aea4 658e bc6c 963e
00000560: 2dd8 4bd1 4cc9 2cbf 8ab7 3208 9bf2 73bf
00000570: 1541 dbaf 9f51 953f e109 73c8 aef2 ae3f
00000580: 916a ad71 a267 17bf ee6b 755f e133 b93f
00000590: 8dbe 9ea2 7d1c c0bf d718 71a6 5704 dcbf
000005a0: 1252 3875 54bd e1bf ef59 d0b9 6632 e4bf
000005b0: 42e8 69d1 e864 e6bf da05 b4e0 482c e0bf
000005c0: e00f ec6e 2ea8 b3bf 2bac 639f 6359 84bf
000005d0: 8b57 de68 bb0d cc3f 8f6a c0b7 9dc7 c33f
000005e0: 4901 b39c 5f21 a53f caa4 3e59 eb86 a03f
000005f0: 5cb6 e00b 3cc8 493f 6deb c705 40d6 a53f
00000600: 60bc 235f 8daa 8dbf b041 b45e 615b 84bf
00000610: 0511 5ecc 60bd 413f acd0 a836 1407 a23e
00000620: 71b3 3243 fd82 a83e cc2e 4b5d 7898 9e3e
00000630: b8c2 ef5a fb95 98be a67d 0018 d3c3 acbe
00000640: c234 276a ed8e 96be dab2 1d72 ab82 863f
00000650: 7666 559e 75f2 7e3f 2193 5a64 a744 5b3f
00000660: 919f d14e 082f 9e3f 5941 312e 1801 7c3f
00000670: ee82 16fd f997 c3bf 8885 6d87 51a5 cbbf
00000680: 599b c4b4 8475 d2bf b1a6 d0ba ef5b e1bf
00000690: b9c1 4e7f 3caa e8bf caac 4657 d206 e2bf
000006a0: 5ede f962 212b b9bf 8ef9 fa71 575f 95bf
000006b0: 0b58 99fa 14d2 9c3f 9dee fa1c 7c70 bb3f
000006c0: b2d7 0538 5ba2 b63f 2509 ef0a 9f6e b23f
000006d0: 70c1 0fdf 8dd7 903f b6d8 7ae2 1732 b1bf
000006e0: 7d14 f92f ce1b 82bf 2159 bb1f 466a 83bf
000006f0: ccd7 995c dba0 a73e d671 0815 eb85 ac3e
00000700: 7ad3 f63b 19f8 a9be 58d3 0e1c 3563 913e
00000710: c47e 89d4 e004 abbe 5c5b 315a c8fd 8abe
00000720: 0d76 3f1e 5585 96bf 0dc6 c5e5 ef67 7f3f
00000730: 922d 7a4a 3d10 a3bf e3e5 cbf2 6dad b1bf
00000740: cf47 66c1 9af2 b7bf 6831 bcd4 001f ad3f
00000750: 40eb 77fc b8cb c33f 58ea 522b 094a b2bf
00000760: bfce 54c8 4ce6 d4bf 320c 559d e236 e6bf
00000770: cad0 dfc4 1eb1 e4bf 6902 cc90 7ed2 bcbf
00000780: d10f abc3 1fd0 d03f 8d93 cedb 6b7f d23f
00000790: bb28 651e f220 a1bf 2d42 ba6e 9e98 92bf
000007a0: d00a bac7 987b 7e3f 4706 1f6a 6b31 c2bf
000007b0: c4f5 e9d1 2a05 b9bf 549b 8f73 533b c6bf
000007c0: c27e 27ca acba 76bf 9220 5ffd d915 53bf
000007d0: c990 8069 bfb5 ae3e eeed f458 67a7 b0be
000007e0: bfd3 3b1d 7c55 ae3e 5a53 8ee8 d30b ac3e
000007f0: 7c58 bfee 086c 933e b524 86a7 956e a73e
-6.145030968483393e-07 7.109947498344335e-07 7.245305632855192e-07 4.2211978436635385e-07 -2.813254916883396e-07 -1.8076543260019336e-07 -7.795453794995069e-07 -5.745042916291542e-07
-3.539503180925302e-07 -4.992600071657173e-07 7.621935614727714e-07 -4.190004899579194e-07 2.1073679912467258e-07 -8.433921133886635e-07 -9.560016718503515e-08 -2.9702116244853696e-07
-7.970913065790736e-07 -4.1168802802357006e-07 2.4901808953970816e-07 -6.687383606236609e-07 -6.844253700867735e-07 -7.503086690283547e-07 3.1916276241607113e-07 4.958598368855647e-07
6.140005388135886e-07 -4.76011965106508e-07 -6.049407559162737e-07 4.568618643989708e-07 7.87412475534941e-07 6.887117990304577e-07 6.478667683172813e-07 5.218302713580743e-07
2.1774559515121577e-07 -7.087483905980189e-07 2.446316530677652e-07 6.29427603629274e-07 -0.011145012937656747 -4.186354472218835e-07 3.824039702873909e-07 9.804619529319317e-07
5.847457681899263e-07 -7.091038958951821e-07 1.5796201947653913e-07 9.858669509536786e-07 1.1941250519386818e-07 2.82676664402057e-07 4.493846731162635e-07 5.279665311614545e-07
5.311560016946403e-07 3.769269154767462e-07 1.5390747190086413e-07 -6.971174939901515e-07 -6.907205095616287e-07 7.539496415691815e-07 -5.635968518221685e-07 5.128978216854587e-07
-3.314355621442788e-07 -4.0363945464106483e-07 4.460745939488799e-07 -1.8577683999633599e-07 1.2822666486773173e-07 -2.409433322964367e-07 2.7972560803316047e-07 1.3660690237891144e-07
-0.014459405060578972 -0.02456286055551331 -0.02941921498218835 -0.04679283728192113 -0.06340494240233656 -0.10593498672722569 -0.03131792562163574 5.429877892641958e-05
-3.1416028503458544e-07 0.001701988538291941 0.0016244960100964166 -0.0008583782852741353 -0.0025123634250825613 -0.02023337717264459 -0.007947357389752958 5.742991963914082e-07
5.180626528608387e-07 9.497662666603302e-07 3.2820566254320137e-07 -5.162735464831081e-07 -3.383553667922638e-07 4.1614823655979866e-07 -4.028925784593853e-08 -8.267587845654221e-07
2.4272038560170855e-07 -2.7187388719781325e-07 -0.011673934849747658 -0.0211565426854219 -0.10650087837864856 -0.17841964943627397 -0.06830511264440685 -0.007420908681186202
-0.10481550390924481 -0.18258820903592676 -0.03691295119748315 0.16112198455670756 0.27836275175858116 0.11840512299161243 0.03546858559292281 0.02512354555301025
0.025509552466221577 0.0016905780052861815 -0.025884997182597024 -0.08984970097296056 -0.0007817112309982721 -8.87707833021033e-07 3.3059848203636435e-07 -6.408266133008591e-07
4.978205264881684e-07 -4.896202825560995e-07 -7.632061974489019e-07 -7.454568889928611e-07 2.254287541306217e-07 -0.0010984736769003244 -0.02998214004820771 -0.02968316241004453
-0.06590234551863436 -0.10439265080578457 -0.008833272192869702 -0.009276984841764343 0.03136905035196657 -0.02900556997884123 -0.05218446346855805 0.07166601465713035
0.10272979116588503 0.11943238191120017 0.12244431084629956 0.19523084329840396 0.03333464658691168 0.03731383178800277 0.02868323962212279 -0.009564299075310286
-0.004448001923323413 -7.623374079072058e-07 9.515291007401275e-07 -7.934178566753534e-07 7.854021723166298e-07 -7.678217321754625e-07 8.063558292034799e-07 -7.011506060711486e-08
-5.385046306275959e-07 -0.009439992110420507 -0.029059769392337804 -0.023255745438070435 -0.01845869481349081 -0.014426472092619705 0.07537561648984353 0.06030985631716904
0.0058980006444428095 -0.4477126288238075 -0.5011544563832531 -0.27706838514481535 0.0005533122408552401 0.4420874091558542 0.5625470743547647 0.24808745381717284
-0.014311131210274225 -0.021001894142574785 0.004948872881463614 -0.018642226074261418 0.006675243650030946 -0.0032027318129212857 0.00036720737023432544 8.683451251131917e-08
-2.6420920223433693e-07 8.217496753427669e-07 3.9876718743966333e-07 3.341548463682678e-07 -0.00021962225641630872 -0.004870038598864821 0.020819182499338746 0.06044527241603582
-8.928231220065921e-05 0.09844788151296743 -0.12586946907457666 -0.4377650380523738 -0.5543615617230577 -0.6311524991204446 -0.699818047534116 -0.5054058445677427
-0.07678499420222762 -0.009936121274639905 0.21916906948598255 0.15452929947135316 0.041270244482350345 0.03227935280239931 0.0007868092723179554 0.042650223451309845
-0.01448545881836888 -0.009939919188156704 0.0005413744590759001 5.372659022729815e-07 7.3050489958968e-07 4.559097679767657e-07 -3.6635796168888117e-07 -8.572620089387279e-07
-3.361450159583768e-07 0.010991420192760715 0.00755544609759228 0.001664317578083892 0.0294762895686343 0.0068369812534715075 -0.1530754552632269 -0.21598261940657104
-0.2884227528870063 -0.5424727104884451 -0.7707808004834568 -0.5633327202425786 -0.09831436792762235 -0.02087151177578899 0.028145149035786726 0.10718513209843157
0.08841486089462938 0.07200044648110245 0.016447273959728503 -0.06717061309140857 -0.008842097128886056 -0.009480045169237674 7.041796205714751e-07 8.500551676479997e-07
-7.739405347069883e-07 2.5909437445107417e-07 -8.052306067033942e-07 -2.011011420467669e-07 -0.02199299809568882 0.007667481517601893 -0.03723327192445959 -0.06905257394455293
-0.09354560109775821 0.05687716099609724 0.15465462043342804 -0.07144219691955678 -0.3265563923225549 -0.6941998551268453 -0.646621117134168 -0.11258688960152487
0.26270288570617334 0.28902718034287816 -0.03345448132547931 -0.018160319813036608 0.007442089841449742 -0.14213316613863666 -0.09773509621478299 -0.1736854852926749
-0.005549120864514813 -0.0011648777776703018 9.152278890351249e-07 -9.92651027888611e-07 9.040214145871412e-07 8.35841960188971e-07 2.8941052110149094e-07 6.98327155255636e-07

W1 f8 [10, 100]
00000000: 11b8 a5ee 11d4 d8bf a17c ff23 bc6a fa3f
00000010: e303 07d3 2675 d43f 2ac2 9b98 a2c9 eebf
00000020: 9494 a8ec 0aa8 e83f 3ec6 b0ab 9dd7 e7bf
00000030: 0f2c d01b 619c ffbf 4eb5 f72a 298d e0bf
00000040: 459f b73d 8780 ea3f 5429 928c abd0 f23f
00000050: 6b41 87fd 2874 f7bf 4031 6967 cd7f fd3f
00000060: d185 12c8 8770 dabf 5fff 55f1 03b1 d5bf
00000070: 08b5 2484 1b23 f8bf beae c404 5496 4abf
00000080: 92d1 4312 fb0b e5bf 9425 0de1 99f7 eabf
00000090: 8e5b c477 df68 ddbf bdb9 a9e7 dbac ecbf
000000a0: b07b 6344 039d d2bf a524 e199 ff31 d43f
000000b0: 0d60 0de6 a9be e9bf 35c5 9d72 f524 c9bf
000000c0: df5a 9034 75db f2bf d83e 8e9a a47f cc3f
000000d0: beb1 9931 9248 efbf fed2 c0a8 1edd eebf
000000e0: e92c e22c f0f9 d83f 4c40 21eb c4b4 debf
000000f0: 50eb 5d34 cc21 dabf 344e 9a4b d4e3 f0bf
00000100: 5eb0 1796 9410 f13f 7324 3f5c cee0 e5bf
00000110: c218 c7ce 681b e03f 33d9 2807 d6d0 fc3f
00000120: 4b4d 803c 8ce7 ed3f ad23 e262 f137 0140
00000130: 3f06 42f0 f614 ddbf 5376 81eb f793 fb3f
00000140: 7513 4d9b a47e edbf a437 322f f93a f83f
00000150: 09d6 0824 a9ea bebf 2352 d444 812d ccbf
00000160: f750 4e99 0fb9 e83f 9c6a d4f3 b79c fc3f
00000170: 589f 992e 491e febf 1470 2b19 7661 f73f
00000180: 25ac 7626 74d1 ebbf 3f40 91e0 01e7 f5bf
00000190: 5b67 a289 257a dc3f 9678 45c2 3a35 dcbf
000001a0: 5260 cbb4 87a3 fbbf 12f9 252e 71de c93f
000001b0: fe1c d176 f506 d63f e670 e265 2a88 c83f
000001c0: f7cf 5cc9 0f50 c9bf dcf6 54e6 3391 e2bf
000001d0: 06e0 9296 77c4 d0bf 9a07 fd33 6045 b93f
000001e0: d0e1 6802 b776 ad3f 18cc 309f fcb9 f0bf
000001f0: 2b1a f96c f4fc f93f 4ce0 3906 4f62 ea3f
00000200: 3d37 4b06 d90c 9cbf 2d9b 6046 64f2 d9bf
00000210: d6d5 bb90 b772 f1bf 9465 635c 38b5 d6bf
00000220: 7a64 7b57 996b e8bf cbbe d73f 993e e7bf
00000230: 9e0c e876 9921 e8bf 358c 1295 c2ce c23f
00000240: d69b 3bf7 3078 d3bf 15a1 d95f 09ee a3bf
00000250: edd0 fd12 8308 dfbf a0b7 9087 900f d33f
00000260: 633e 4da9 3da9 d4bf 9d85 625b 6c68 dcbf
00000270: a0b3 4700 2dae f7bf 9a37 5690 d4b9 dfbf
00000280: 3dbb 463f e564 e9bf fba3 df7d efce f23f
00000290: 513a def4 3855 f0bf 06c9 8819 6836 f8bf
000002a0: 90b3 da49 3a53 f5bf d32b 20f4 410e f03f
000002b0: ad11 f31d 4c00 e9bf b4a6 d7b4 e4ec c6bf
000002c0: 62ad 122e 8fc5 ed3f 14f9 d7f2 44c0 f7bf
000002d0: 8564 8477 0dc5 eb3f 7a04 4409 771e f33f
000002e0: d191 bf07 325c e13f ebd1 1079 56bc c8bf
000002f0: eeda e921 b950 87bf 8c8c 43d2 d997 b23f
00000300: cb3d 90bf 7bcd cdbf 0ee2 9233 363a c33f
00000310: 1ba1 930d eef3 df3f 46c3 ad92 3755 e1bf
00000320: 0bba 3cb7 d3f8 d13f abf0 d3a9 ba27 eabf
00000330: 43b9 d913 90a9 e5bf a67f 3182 c06f 0140
00000340: 436e d6c7 f2ea 70bf 3493 c711 15d3 8a3f
00000350: dba0 cb35 096f d3bf 08f7 13b4 a68e ff3f
00000360: 0efa d9a4 e4e1 d3bf 5d5a 8dbd c7c9 c73f
00000370: 36e0 5863 6030 9c3f 88a4 8309 d69f d83f
00000380: ebaf dcbc 559b fb3f 23fa 36a1 9f25 d9bf
00000390: 9728 63eb a52c f1bf 85e9 7c3f 1ca1 ac3f
000003a0: 18de 148f 1eb0 c7bf dcba cf38 b16c e43f
000003b0: e6e9 f73f d000 e63f e4a7 8ae0 d93a f13f
000003c0: b3eb bbca 2ef4 c13f 95aa 3ecd 266e e7bf
000003d0: 0d58 17e1 fec1 c3bf 2718 cc3c 08b9 f63f
000003e0: ccf8 9ae4 f321 e4bf 1b0e a2cb dead cd3f
000003f0: 84a1 1e1c ae39 ddbf 392d e108 75aa f53f
00000400: 6a92 9040 9bd4 f03f 0906 451b 19b4 f03f
00000410: d7c2 39a9 7bf8 f3bf e76b b86c cf59 e93f
00000420: 6220 7e3c b1ce e3bf 7b17 2ddd cffe ff3f
00000430: e446 ae24 80fb e5bf a2b3 2e69 ec61 e9bf
00000440: cd92 8316 7917 f1bf 6421 9cd3 03bc b6bf
00000450: bc21 8386 d96d f13f 55e3 b81b ef89 e23f
00000460: ced7 776b d0b1 c43f 4419 394c 56f9 dcbf
00000470: 14c4 f139 0426 e2bf d78c 2cde 9740 e33f
00000480: f4a6 787f 8674 d5bf 8e29 3e7f 1e93 debf
00000490: fb7c 75fd 23ad e7bf 9eab f871 49b4 85bf
000004a0: 1747 a8b0 6cf4 fb3f 9b30 fc3c cabc e6bf
000004b0: 5c2e ff88 9c87 813f 105a a477 3ec7 e5bf
000004c0: 6750 a4a0 f6e2 e93f 6811 310d 831e e4bf
000004d0: 7f3b 6fa9 68ef d6bf 5b67 568b fc32 f5bf
000004e0: 8a6a e92f b47a f53f 240c f811 ab52 f33f
000004f0: e51f e649 b1bd f53f 3fe2 82a6 749c f03f
00000500: 99bb 3992 ebd9 fa3f 2fa8 57b1 6615 973f
00000510: 9664 7a6c 37cb c6bf b865 a985 99bd 973f
00000520: 2892 fce7 c0e9 babf 2b40 5e3d 7b88 e83f
00000530: 091a 79a3 af57 f3bf 1844 3af9 a59c d73f
00000540: 31ed ac58 cf21 0040 fe2b 93fd 0717 dd3f
00000550: aff3 d5c7 0ed4 d23f fa5f 5d7b 2c5e cf3f
00000560: b487 3fa4 1c1e f13f 261a 0a3f 119a e3bf
00000570: e28a be6f 205b f03f 650b 252d daf5 d03f
00000580: 3c36 81b7 6359 ff3f 3cec 18a2 3de0 f4bf
00000590: db0c 09c4 82e8 e6bf a364 e9a8 32c0 f43f
000005a0: 958b a565 92dc 973f d810 e1dc ce95 d73f
000005b0: 7452 21d3 3d2c f33f c63b ceb3 cbcb f03f
000005c0: 4cf9 035d 0e56 e63f 3758 8628 b687 d53f
000005d0: 4362 feec 82f7 d43f ce53 4174 485d d93f
000005e0: 12b2 4777 d9eb a63f e672 4c17 0b45 e3bf
000005f0: 0e85 f454 3cc8 ddbf 46e2 2ab3 04e0 edbf
00000600: 62e5 01c8 2fc2 d23f e9d3 7edc e56d e23f
00000610: f6c9 b999 f79c ebbf 78cd 984e e5b9 f3bf
00000620: 8d8d 2d81 21b2 dfbf 16fd 3354 723c f2bf
00000630: ee03 3300 22e3 aebf 6e3d 6e62 276c d53f
00000640: 273e ba64 2367 f33f 53e4 b36b cdd1 f33f
00000650: 8354 95e8 3a04 ee3f 4eec 252a e17e e7bf
00000660: aaa6 b5eb 2fc2 debf 8457 ddfb 523e 01c0
00000670: 02b1 ad9c 38bf f0bf 2840 69b4 a345 d2bf
00000680: c0d1 60b2 09a7 fa3f 699f 6a2c 9923 f7bf
00000690: 71ff 0521 550a c2bf 2ecc fe96 3bda e5bf
000006a0: d886 bd3a 1c05 f03f 681d 8d0d b33f e63f
000006b0: f301 9389 d677 e8bf eee8 88c9 4ed7 cf3f
000006c0: f393 13ca 0555 e0bf 3010 cac9 79ae f5bf
000006d0: c462 503c f0b9 eebf df10 7ffa 82e3 f23f
000006e0: 1e62 a425 ec67 c5bf a696 9124 5469 06c0
000006f0: 1013 0a01 9cab bc3f 9ab4 6f8a c61a e4bf
00000700: 4069 bb28 9eff dabf ac1e 8fdf 919b d6bf
00000710: 3930 3edf c2b0 ebbf ddc4 bdfc 5eda dcbf
00000720: b6dc 6faf b08e fcbf 8308 56d2 6acc fc3f
00000730: 623d 5624 a543 f23f d29f ec4d c75f f33f
00000740: b468 6eda 9426 f73f 01ef 5f0d 7200 f4bf
00000750: bcbc 5af8 44f7 b33f d60e d7fd b92a d93f
00000760: 8d77 2124 b4cf e53f 5336 7693 bbdb f53f
00000770: ab9a b860 36b2 f73f e1b5 f0a0 b0ed 95bf
00000780: cd81 c0d4 4f34 f8bf 3a8f a2be fbed fc3f
00000790: 4ba9 572e ae3e d3bf 7969 56d8 d322 fe3f
000007a0: f3df f030 1719 e23f a047 e229 90bb d5bf
000007b0: 6b8b 4688 05fe bf3f 9d56 2484 383e da3f
000007c0: 0a09 c58f 5857 e73f c79b 22ef 4dcd f7bf
000007d0: b304 1010 880b d8bf 850f a381 7d4c e03f
000007e0: 1235 e1a3 f375 fa3f b7f9 6aba 913a f23f
000007f0: 508b 1e52 78f5 d0bf d5a2 698c f0b5 b23f
-0.38794372849849973 1.6510583311244675 0.3196503697218402 -0.9621136646874835 0.770513021682421 -0.7450703004198613 -1.9756785475208323 -0.5172315444193971
0.8281894879737385 1.175944851975676 -1.465859403939329 1.8437017478455147 -0.4131183103400789 -0.338929162673585 -1.5085711633540217 -0.0008113775489042225
-0.6577124935852672 -0.8427247424635191 -0.45952593513487094 -0.8961009525935918 -0.29083329847884 0.3155516627053408 -0.804524373360438 -0.19644039246080927
-1.1785785725857563 0.2226453547159426 -0.9776087731129832 -0.9644921585046118 0.3902550161662491 -0.47978327714827596 -0.4083128463168366 -1.0556223824722908
1.0665479529370923 -0.6836921502773649 0.5033458746554731 1.800985362975166 0.9345151120818768 2.152315876508928 -0.45440457785307226 1.7236251067582955
-0.9217093499397452 1.5143977969741877 -0.12076813821553158 -0.22013870106515396 0.7725904459244067 1.788261368236511 -1.882394010573952 1.4612942679586967
-0.8693180800668229 -1.368898274628023 0.4449552387319408 -0.44074887248815153 -1.7274243414194825 0.2021008944829608 0.34417473414619326 0.19165544485884495
-0.19775578815608671 -0.5802249430341493 -0.26199140266862775 0.09871484059570293 0.05754634766020994 -1.0454069345839851 1.6242565399894697 0.8245005723574734
-0.027392760285514618 -0.4054194152144415 -1.0905070928250686 -0.35481080076495997 -0.7631346424706316 -0.726391434376603 -0.7541014978782135 0.1469348171131927
-0.3042108930953281 -0.03892545027776088 -0.4848945317710463 0.2978249858741666 -0.32282964261410124 -0.44387349056531794 -1.4800233851376348 -0.4957171830691266
-0.7935663448205116 1.1755213658273067 -1.0208062710913917 -1.513282871001651 -1.3328192601140678 1.0034808670195516 -0.7812862954092928 -0.1791044123668165
0.930366125093695 -1.484440754516588 0.8678042730636127 1.1949377405110497 0.5425043250402785 -0.19324761306201252 -0.011384435985048093 0.0726295603122244
-0.23283335546191916 0.15021398084879006 0.499263299234842 -0.5416524758166836 0.28081219572314414 -0.8173497502280233 -0.6769485843376873 2.1795663997035772
-0.004130314218311395 0.013097920041170143 -0.30365209821185396 1.9723269495293057 -0.3106624231221823 0.18584534411884848 0.027528291762991063 0.38475562028049426
1.7254235627578918 -0.3929213594782672 -1.073400420648374 0.055916674375526866 -0.18506223665620847 0.6382680997465644 0.68759930127936 1.0768679400593948
0.14026436709522513 -0.7321962364852249 -0.15435777655392294 1.4201738715069128 -0.6291446175526061 0.2318686003019231 -0.4566455149274804 1.3541155192240935
1.0519058725414205 1.0439692559451734 -1.248164807355513 0.7922131656117671 -0.6189809972284019 1.999709953278823 -0.6869507519170068 -0.7932035497993761
-1.0682307128383173 -0.08880638042694994 1.0893187765487786 0.5793376485299669 0.16167645690410243 -0.45271832889229224 -0.567140687153485 0.6016349162422568
-0.3352371449314966 -0.47772943903023524 -0.7398853254670991 -0.010597776213293216 1.7471739674260272 -0.7105456534495888 0.008559439593134481 -0.6805717789418981
0.8089554917846841 -0.6287245996141282 -0.3583623556741528 -1.3249478762504256 1.3424569961122494 1.2076826764976056 1.3588116537739492 1.0381971840235023
1.678203173821862 0.022542576383706766 -0.17807667538435074 0.02318420294100118 -0.10512929595694998 0.7666603277775769 -1.2089077363649514 0.3689360555518433
2.016508763100909 0.45453071368382314 0.2941929770966522 0.24506145499867654 1.0698515335029528 -0.6125570517768366 1.0222477307331066 0.26500563057577714
1.9593236129907288 -1.3047462779930035 -0.7158826664748646 1.2969233129609072 0.023302352384586184 0.36851855821829593 1.1983011481544539 1.0497548125892862
0.698004895850127 0.33640817601679224 0.3276068987266038 0.3963185439400235 0.044768138704828556 -0.602178140168317 -0.4653464154854 -0.9335959910741358
0.2931022122571304 0.5759152704764549 -0.8629110338645762 -1.232884699839671 -0.4952472459319431 -1.1397574700529893 -0.06032663586075403 0.3347261868702479
1.2126802382152932 1.2387212950836968 0.93801637102537 -0.7342382262426186 -0.4806022455073654 -2.1554317166255164 -1.0466848488095484 -0.2855004560306065
1.6657807319544276 -1.4461909995097477 -0.14094032394859426 -0.6828897427680027 1.0012476248306736 0.6952758087799511 -0.7646286665913621 0.24875817146841633
-0.5103787371450593 -1.3550966150660422 -0.9601975610740614 1.1805448327077597 -0.16723396146768804 -2.80143002099324 0.11199355149626578 -0.6282684997401191
-0.42185167291394876 -0.3532452281183207 -0.8653272972310396 -0.45082831079259994 -1.7848364689832983 1.7999065605404503 1.1415149135026117 1.2108834308546546
1.4469193012687755 -1.250108768696862 0.0779917818388069 0.39323282040662144 0.6816044526747064 1.3661456833100558 1.4810088899772988 -0.02141452772428021
-1.5127714453338854 1.8081014105491264 -0.30070070768001206 1.8835028124509263 0.5655628162267007 -0.33957294550156725 0.12496981217422636 0.4100476541947076
0.7294123466492988 -1.4876231518953646 -0.37570382660494345 0.5093371898624218 1.653796806483403 1.139299133486572 -0.2649822999903124 0.07308867862742414

b0 f8 [100, 1]
00000000: 8dc4 bfae 1ef6 d7bf cbe7 14fe 37bc e3bf
00000010: 669b ba4c 8d0c cbbf 44d0 64dc 9e89 f6bf
00000020: 0555 f53e bddc d1bf d769 cc40 e594 e2bf
00000030: ad70 94d1 1c3f 8cbf a070 ba28 5570 d5bf
00000040: 967c 486c 2c0c efbf d9fe 3f1b e30f eebf
00000050: e0f5 d4b3 1a66 ddbf e627 11d2 0dd3 f7bf
00000060: c7ad 71c2 89c2 ebbf d7b9 255b 27f2 ddbf
00000070: 42c4 f5f8 2bc8 f1bf 033a 17f3 791f e3bf
00000080: 28af 096e 453c cdbf b86a 1907 a9c8 e6bf
00000090: 47c2 7a1e 0ed4 fcbf 7fd1 46da 7844 e3bf
000000a0: f5c8 13f7 7010 a43f 6a6b fed7 dca5 e3bf
000000b0: ab15 101c 8ad1 cebf 81a5 8391 a284 a4bf
000000c0: fa17 a893 d4e5 f3bf 7d5a 0463 9cfd e0bf
000000d0: 1d92 5d3a 36de f1bf 4311 5aeb 2099 eabf
000000e0: 8822 d3cc 2916 f1bf b374 07d0 5892 e0bf
000000f0: 6ca8 f3fd 36f5 d2bf 36a7 3695 3b68 e3bf
00000100: 8e7d 0d6e d930 c4bf cdb3 6af5 8f4f e8bf
00000110: 1812 5c25 dbb7 e2bf d773 ce6a 4778 d4bf
00000120: de22 16cb e001 edbf 88f5 129e a8b7 d5bf
00000130: ef92 6f1b c216 f8bf b186 7655 6842 dbbf
00000140: ba2c 442e b49f f1bf 9553 29f6 397d f7bf
00000150: 3272 18a8 f5ca e9bf b308 a1ab be9a febf
00000160: 8c89 15b5 86a1 c7bf 2b22 bf8d 0c1c e4bf
00000170: 741f 3a53 ec4f e5bf d70f 8413 d376 d4bf
00000180: bca8 272d 6210 f0bf 90cd 0e8b e022 ea3f
00000190: 687d bde9 bc96 da3f 9fba 982a 9296 c8bf
000001a0: 0e95 be90 7dfd e7bf 9eb1 103d 6536 d0bf
000001b0: 2c34 4a65 aac8 e8bf 2380 9601 c8a5 d93f
000001c0: 4754 bc6d 77e0 e0bf e61e 921a 1808 f3bf
000001d0: 63d9 5468 0c96 fabf fe1d add4 b1af e2bf
000001e0: 6323 3b24 8830 ebbf 72d2 2ec1 f2e6 fabf
000001f0: 117b eeee 0e26 ddbf dbd9 11b8 b6b9 f1bf
00000200: 9e36 e4a1 763d e03f 56e6 e55b 67e5 debf
00000210: 49fe c597 3c3a fabf e286 6e84 5cb3 efbf
00000220: dcdd c86f c725 d2bf 627d 5e7d f33d e5bf
00000230: f84f 39e0 b8f7 e5bf d752 15f1 3389 c7bf
00000240: 812e 5bbe 70e8 f7bf 20be bfb7 a906 d2bf
00000250: 4036 f7a6 143f efbf 7de2 f2e9 d633 e3bf
00000260: 09ed 55b8 d327 e6bf c551 0294 ca15 da3f
00000270: 04db 6235 c24e f2bf 63b4 5791 a539 f0bf
00000280: bc94 ef3d 9790 c63f 3883 8272 8fcd dcbf
00000290: 8ef5 d618 5f9a f4bf 9a7a 949b ff5c f4bf
000002a0: 2219 245f fa2b fcbf f356 bbe3 a1d0 eebf
000002b0: 9f7b 5a48 b302 ccbf 5a3f d0e7 0bd8 e7bf
000002c0: 1aee e545 a201 bb3f 7510 6394 6fed f6bf
000002d0: e89c b2e0 abb9 eebf 6229 aada bb89 efbf
000002e0: acd1 5e1d a3d2 f0bf 4377 d8e4 8cd2 eabf
000002f0: 3f89 5633 12ed e7bf 72fe 2d6c 0c9f f03f
00000300: e427 a09e a020 d2bf 224f 660d e8f6 d23f
00000310: 550c 4cc3 0c6d e7bf ff7b 83ca 2cbd d3bf
-0.37439696374264814 -0.6167259180576762 -0.2113205551770207 -1.408598767197888 -0.27909785412096283 -0.5806757226558216 -0.013792252679700157 -0.3349812410103912
-0.970236026278047 -0.9394393474794597 -0.4593569523020431 -1.4890268522017265 -0.867497329495955 -0.4679048910246854 -1.1113700604439747 -0.5975923297754097
-0.22840183136883607 -0.7119946612031844 -1.8017712774855157 -0.6021084082808982 0.039187936936189084 -0.6139969080571579 -0.24076963777785684 -0.04007442499443937
-1.2436109321438367 -0.5309583600927251 -1.116750934591557 -0.8311924549784994 -1.0679109574286105 -0.5178646147793614 -0.29621672439555513 -0.6064737238241154
-0.1577407634131131 -0.7597121995255464 -0.5849433641129194 -0.31984124594037894 -0.9064792601139648 -0.3393346351329787 -1.5055562087738357 -0.425928195438341
-1.1014901931073795 -1.4680728545838282 -0.8060253413310134 -1.912779493738111 -0.18461688844679391 -0.6284239548195435 -0.6660062432792828 -0.31975247293325765
-1.0039998782981874 0.8167574611638191 0.4154503138178911 -0.1920950611106109 -0.7496936633148452 -0.25332003558539806 -0.7744953134839583 0.40074348597591064
-0.5274006980204228 -1.1894761121674775 -1.6616329265067058 -0.5839471010048667 -0.8496742923390282 -1.6813838525969484 -0.455447896319968 -1.107840270063767
0.5075028573935076 -0.48275169348162217 -1.6392179421090012 -0.9906447016294033 -0.28355585018604557 -0.6638123940100906 -0.6864895228741252 -0.18387460014004972
-1.494248145655462 -0.2816566748069551 -0.9764502774284622 -0.6000780648528942 -0.6923616981797817 0.40758003667840753 -1.144228180446306 -1.0140739133305707
0.17628756069385598 -0.450046407533637 -1.2876883478450938 -1.2727047040313324 -1.7607368198819775 -0.9629678199659949 -0.2188324073112797 -0.7451228644949695
0.10549368101595072 -1.4329677387586603 -0.9601649654986462 -0.9855632086558155 -1.0514250895767914 -0.8382019490852389 -0.7476893427558834 1.0388302064674488
-0.28324141970426653 0.2963199740272434 -0.7320617498775258 -0.30842132355422786

b1 f8 [10, 1]
00000000: 47e2 d457 9ac5 de3f e22b d0be c64c d8bf
00000010: a6d5 92bb 36fa dcbf 21d3 854b 1879 c13f
00000020: 2e4f 6a84 f00b 4cbf afa2 1e4c ef84 dbbf
00000030: 801b 9c51 45ae e8bf 1dd0 dc51 f551 edbf
00000040: 8465 6266 bbdd fd3f 784c 94ee 53e1 dd3f
0.48081072404196273 -0.3796860564622745 -0.45277183835727397 0.13650802314409652 -0.0008559154892559867 -0.4299886935573722 -0.7712732881490041 -0.9162546728971425
1.8666337966336366 0.46687792109259574
