data/params.npz (npz, 202190 bytes, 4 tensors)

W0 f8 [32, 784]
2.335617680647402e-07 -1.4626591846503779e-06 1.8241941586928433e-06 -1.944958492326552e-06 1.2946026661487788e-06 1.5553583690716857e-06 -3.690282202959464e-07 1.2536547017298983e-06
-1.0891578519448972e-06 -1.4689367219433566e-06 -5.327529596216364e-07 -1.2964373742306507e-06 3.8272917914215714e-07 -1.1269278813478887e-06 1.7678323051399553e-06 -4.440817511238666e-07
-9.389297528011864e-07 1.9141447082042772e-06 9.808227518205115e-07 1.9679792715427617e-06 6.545850904992213e-07 -4.173980275858774e-07 9.789570697826522e-07 -6.7761282133222e-07
-3.912391559721755e-07 -6.862439211404121e-07 -8.374146300374413e-07 2.1304294833407367e-07 -1.480608923678227e-06 1.5293445919747858e-06 -1.3551892674138335e-06 7.920867119327389e-07
-6.5560395635368e-07 1.1481843453472792e-06 -6.019076643518003e-07 6.698920080039571e-07 -5.109828270552716e-07 -1.9066172743914328e-06 -4.502784750575598e-07 1.2835309058103262e-07
1.2273720774249498e-07 -7.040230363338107e-07 3.2881701737543076e-08 -4.725997580512363e-07 4.787293614820313e-07 5.67755795504129e-07 1.824706075602748e-06 4.138254594180333e-05
0.00012225099492358275 0.00011674695991735807 1.1410547889088522e-06 -2.506684128136109e-07 1.2592194683124464e-06 4.635920277672023e-07 9.94002335254898e-07 -1.180960323883704e-06
-4.7168394107949187e-07 6.93851830939282e-07 2.8474385015954145e-07 -1.6908801538521423e-06 8.651993845100526e-07 1.8189293753034745e-06 6.575594451280794e-07 1.9764134741705592e-07
3.167985889705644e-05 -2.3048071670558044e-07 -1.6855012535655603e-06 -5.110376977201964e-07 -1.1793542387953177e-06 1.445414798413052e-06 5.601478071176355e-07 7.4186195317202e-05
9.34844852844807e-05 0.00011814823273937197 0.00012467743762095262 0.00012353340182207897 0.0001248092028127522 0.0001228881245202912 4.1812394093592584e-05 1.0758014392954296e-07
-1.2754983616690372e-06 8.097928403806013e-07 -2.4345048332612095e-07 -1.0774993450718988e-06 1.2904666207340114e-06 1.3880103628343035e-06 8.89193891696467e-07 1.8078779586689572e-06
1.236605340536269e-07 2.401947167226929e-07 5.936169415912858e-07 1.0703091191173944e-06 0.00011578622881754451 0.0002750411530441504 7.09645894159969e-05 1.2542891593748048e-06
-0.0003928987830870954 -0.0002729892260254696 -0.00010222551683350429 -5.0998432490039375e-05 4.7656970657448213e-07 1.1386159552899702e-05 6.409200742351475e-06 -7.664713946974723e-07
9.031927160525998e-07 9.934498449457239e-05 0.00012350212450586964 -1.8416646820738448e-06 -1.0064745924457155e-06 1.9059974532230297e-07 -1.7552299595993115e-07 -1.329414088968471e-06
-9.855249260097711e-08 -1.3590732322808794e-06 1.4417416781493153e-06 -2.2476889143697315e-07 -3.173302056625571e-07 -4.4103421233372283e-07 2.2312336043250483e-07 4.216820485200904e-06
5.544423147525902e-05 0.00035844150123918165 -0.03166005435731544 -0.00445033770685581 0.00037569433233253946 0.00013750909005603908 -8.28224773453801e-06 -2.8377078182637184e-07
1.8785916513751187e-06 -8.055338370756397e-05 -0.00025968816953302287 -7.015735510363504e-05 2.738787854867736e-07 3.6026955754237697e-07 0.0001235180000079569 7.936885920607696e-07
7.969087617133522e-07 -9.779082574203873e-07 -9.39506865320731e-07 -1.3057585296110132e-07 -8.59407947975957e-07 -1.642034685968744e-06 -5.621065606230996e-07 -5.673133915352982e-07
5.467198099202938e-07 -1.1599026519255534e-07 1.8903454771546016e-06 0.0003003997839803831 0.0002990291562294082 -0.20545575115386489 -0.12979036875779854 -0.08961858246723411
0.0004850952940466957 0.00027720502192939557 0.00023459542556433522 -3.4968912902335873e-05 -0.0001834624190713641 -4.6176509329824396e-05 -0.0003221510537331948 -0.00509527079498605
-0.00092916930448759 -0.00019217168871173842 0.0001244404757727048 8.131829158785984e-05 -9.890649578242294e-08 8.194549146927462e-07 -5.51930145318017e-07 -1.5668530171958308e-06
-1.0975752213730415e-06 -1.633409904510907e-06 -1.0333388966995215e-06 1.8532882309073984e-06 0.00012553778633239351 0.0001976964140867655 0.00015440804942812956 0.00040910311177663
-2.6442764319254668e-05 -9.526128466987194e-05 -0.0005261861576711597 -0.0824703380123392 -0.10296481486125067 0.0003251797007267411 0.0005039967036547334 0.00023627587279855192
0.00034590285337738924 -2.979151234916679e-05 6.300295441894337e-06 -2.471883534572172e-05 -0.0003731964087056235 -0.0009594330459521257 -0.0001255526851129086 0.00012617777913485868
1.9809138855794762e-06 5.753623738719389e-07 1.0377212188756715e-06 -7.582319763735523e-07 0.0001242736514278954 0.00012277308763735073 0.00011969453088299213 0.00012364170334330622
0.000141725232703407 0.0001547524486610695 -0.005648551750937185 0.00014358528102777527 -3.2133846850869566e-05 -0.0006186612528478481 7.386513957010502e-05 0.0004685070211883339
0.0003768222260633679 -0.0042128504477808235 -0.00040346019021418996 -8.419468790201115e-05 -0.0001767566889972015 -1.3889664147237086e-06 0.000212206921629542 -0.052184072971608444
0.00015765918659072948 -7.478379807376225e-05 -0.0005460236254692175 1.0657941504360858e-07 1.650782737429579e-06 -1.5268281900469802e-06 1.797636670131478e-06 7.185643965479992e-07
0.00012434293839765258 0.0001228587247135101 0.00011646446645326791 1.9349442150295632e-05 -1.651195957459568e-06 -0.02198619681260178 1.5046173669431724e-05 -7.980298942690009e-05
-5.8775440176682984e-05 -1.1905836179142341e-05 -9.20770873057651e-05 -0.013995746451848133 -0.000605210304285908 -0.0011944484179887143 -2.5800305989228315e-06 0.00030715126062274287
-0.00015152430752045438 -0.0005944480019097537 4.30145714048856e-05 4.448009077486932e-05 4.0131085339960846e-05 7.617641714542932e-05 1.9487498516994114e-06 -1.6686857675530942e-07
-1.8669312444187495e-06 -1.7463764433069445e-06 1.9639827658093398e-07 -1.0773802760914117e-06 0.0001042774835861677 0.00012437793454545375 -3.2741249084613956e-07 -4.5070753387934947e-07
00000000: f8ea cf09 1f59 8f3e 3462 efc7 128a b8be
00000010: ca72 55b0 da9a be3e f257 2a3d c450 c0be
00000020: 92c4 4daf 46b8 b53e ac0f b69c 3618 ba3e
00000030: 547f da46 dbc3 98be 1efe f8eb 6708 b53e
00000040: c2aa 02b9 e545 b2be f332 9901 09a5 b8be
00000050: 4ad7 cd25 50e0 a1be d4e8 b7f7 27c0 b5be
00000060: 3c61 24bb 3caf 993e 3a30 284f 1ee8 b2be
00000070: c4e8 ea2c c8a8 bd3e fc8a 3832 44cd 9dbe
00000080: b8f5 9a5c 5881 afbe e0d0 942e 980e c03e
00000090: 84d8 3905 9a74 b03e 57f1 cf0b 3482 c03e
000000a0: 48f2 34d6 d7f6 a53e 5c0f 60f0 d702 9cbe
000000b0: 35f5 6aae 966c b03e 7ae7 345a a6bc a6be
000000c0: 6c23 4301 7041 9abe 3410 7157 ca06 a7be
000000d0: b251 f93e 5619 acbe 7899 5d97 1998 8c3e
000000e0: d056 4fba 2ad7 b8be a29e 6829 7ca8 b93e
000000f0: ecdc 7b5b 7ebc b6be ac92 9619 f993 aa3e
00000100: 902f b158 98ff a5be 01bd dd09 6a43 b33e
00000110: dc5b 9cf3 5832 a4be c600 b41a 547a a63e
00000120: 5e9a b01e 4f25 a1be 6ccc e7dc dbfc bfbe
00000130: 10dc 1ead b937 9ebe c0cf 74b9 2d3a 813e
00000140: 38dc 86e5 3779 803e 74fb 8207 839f a7be
00000150: 4090 6207 3aa7 613e d850 90b7 33b7 9fbe
00000160: d66a bfff 4010 a03e 163c a232 fc0c a33e
00000170: ce52 228c 0d9d be3e ef92 9973 45b2 053f
00000180: a1f0 d90c 1006 203f ee1c bf7f c19a 1e3f
00000190: 463a 2202 cb24 b33e a09e a256 73d2 90be
000001a0: 5050 8472 4e20 b53e 8846 e04c 731c 9f3e
000001b0: bf8c 2a20 35ad b03e d44f a99b 2fd0 b3be
000001c0: 5410 52e9 77a7 9fbe 7297 e84f 2448 a73e
000001d0: 0c5f 5eb2 dc1b 933e 1a11 ed63 465e bcbe
000001e0: eec7 3591 0108 ad3e 9647 8dff 3d84 be3e
000001f0: 48b0 0183 6410 a63e 604c 4aad e786 8a3e
00000200: 76f7 c9a9 ff9b 003f f887 efd2 41ef 8ebe
00000210: 85d8 173a 2c47 bcbe 6acc 20c8 c725 a1be
00000220: c405 e6b2 49c9 b3be 0e76 b860 0240 b83e
00000230: 4a09 ed0d a2cb a23e 7da5 7c21 8d72 133f
00000240: 0907 593a a381 183f 2be1 ca2e cbf8 1e3f
00000250: 6067 c508 7b57 203f 30b7 71d7 1731 203f
00000260: 6cfd 7de3 e65b 203f f6ba a6f3 701b 203f
00000270: 9aaf edeb f6eb 053f e011 1de8 d9e0 7c3e
00000280: 8e30 a547 3966 b5be 90ee c549 112c ab3e
00000290: 6467 7f8c 7256 90be f952 0f0f d313 b2be
000002a0: 1e59 040e 83a6 b53e 228d 8d88 7549 b73e
000002b0: 12bd e90b 1ed6 ad3e b5e2 4fd6 c654 be3e
000002c0: 00cc 8a8f f198 803e b8a2 2e89 831e 903e
000002d0: 4871 9e75 21eb a33e 1674 6052 f1f4 b13e
000002e0: 0555 af43 485a 1e3f ff92 e3c1 6c06 323f
000002f0: 9298 e45c 5a9a 123f 5167 ec83 210b b53e
00000300: d415 8b6c bfbf 39bf 71c7 45cc ffe3 31bf
00000310: 15c8 a701 3dcc 1abf 744f 2bcc e4bc 0abf
00000320: 5079 3cbc 67fb 9f3e 7f3d 5fda e5e0 e73e
00000330: bcfc 6baf d3e1 da3e fc96 f16b f0b7 a9be
00000340: dca9 6ec9 5d4e ae3e 92b8 73d6 ed0a 1a3f
00000350: 2c03 e62b 0b30 203f e2dd 7ebb e3e5 bebe
00000360: 3df1 7784 c6e2 b0be f055 0117 f594 893e
00000370: d89c 9999 ec8e 87be 2031 bb3f ca4d b6be
00000380: 1046 f4c8 7974 7abe 9982 67d2 2ccd b6be
00000390: f2a4 47bd 3b30 b83e 002a dc13 002b 8ebe
000003a0: 3c6b fe00 b14b 95be 0cb9 94fa e898 9dbe
000003b0: c063 73d5 75f2 8d3e 345b f7c9 c6af d13e
000003c0: f7e8 9949 9911 0d3f 656e 7d86 a67d 373f
000003d0: efc6 1b24 bf35 a0bf b27c 836e 843a 72bf
000003e0: 83a0 e3de 1a9f 383f e00d e216 0a06 223f
000003f0: 6d1c 0676 7f5e e1be 34ae d218 250b 93be
00000400: 36d4 515d 7d84 bf3e 5534 2c98 d81d 15bf
00000410: 2b57 ff31 d804 31bf f181 d72e 2e64 12bf
00000420: a4d3 10a3 3361 923e 3873 4645 622d 983e
00000430: 472c 7f8a 9330 203f c27f eeab bba1 aa3e
00000440: fe9d 49e6 64bd aa3e 2a89 fb7f 1568 b0be
00000450: 4441 1272 4d86 afbe 209e 5e59 8d86 81be
00000460: be70 4810 42d6 acbe 74bb fd3a 7c8c bbbe
00000470: d8de 1e66 75dc a2be a80f 5757 2f09 a3be
00000480: 9675 8793 4958 a23e 508c 1953 ca22 7fbe
00000490: 4d3d 28d5 f8b6 bf3e b1c3 773f dfaf 333f
000004a0: d37a 5172 e098 333f 3a90 fdc1 5f4c cabf
000004b0: 6644 9386 f89c c0bf ba86 cf50 3ef1 b6bf
000004c0: 143e 626c 8cca 3f3f 4ca7 e380 ba2a 323f
000004d0: 9e4b 765c b7bf 2e3f 6e41 c6b2 7255 02bf
000004e0: 20c9 0e2e fa0b 28bf a088 81c7 b435 08bf
000004f0: 43dd 7a3d cc1c 35bf f212 dc56 c7de 74bf
00000500: 4e73 3ae3 6f72 4ebf 032b 893c 3630 29bf
00000510: 57f8 278c 874f 203f 6b5f 9b9c 2d51 153f
00000520: a0dc 8c79 cd8c 7abe 2aa1 0e6a 107f ab3e
00000530: 903d 9939 0b85 a2be 1f33 861c 9549 babe
00000540: 9ac9 dfb7 0c6a b2be 0fc7 d42e 7167 bbbe
00000550: 77f9 e121 2856 b1be b6fe a1f5 cf17 bf3e
00000560: 806f 985f 5974 203f 7eb4 1d44 97e9 293f
00000570: f170 890b 133d 243f 7695 5b7c 9ccf 3a3f
00000580: 57d7 6eed 2cba fbbe 7b84 af68 e0f8 18bf
00000590: c8fa 5d2b f83d 41bf 1b2f a7ac c61c b5bf
000005a0: 8abf 77f0 e65b babf 69d6 102e 9c4f 353f
000005b0: 53bb 03ae d483 403f 4f86 024b 1af8 2e3f
000005c0: d38c 5e71 49ab 363f d682 ca23 193d ffbe
000005d0: eac1 3106 e46c da3e 6506 346e 69eb f9be
000005e0: 74ea d05e 3275 38bf 7767 0cc7 4e70 4fbf
000005f0: 883b 5c5a d974 20bf f6c5 a6de d289 203f
00000600: 1597 e7ec fa9d c03e 4c53 923d 534e a33e
00000610: 7249 ea8b fa68 b13e d033 c8bf 2971 a9be
00000620: 80d4 8a89 ee49 203f 56d6 deca 9417 203f
00000630: 80bb f261 9060 1f3f c10b 0225 ba34 203f
00000640: f001 9d7a 8293 223f 4395 7569 a148 243f
00000650: abff a390 ef22 77bf 7492 222c ecd1 223f
00000660: 44c7 0f92 eed8 00bf 1091 94ec b445 44bf
00000670: 0fe6 606f 015d 133f dec3 7d55 3eb4 3e3f
00000680: 793e 2923 07b2 383f 58a9 566e 7e41 71bf
00000690: 4937 7c52 f070 3abf a684 61b9 3512 16bf
000006a0: 42e1 ad65 f82a 27bf 2d7a 3cb9 904d b7be
000006b0: da07 a793 7bd0 2b3f 52fd 91ed deb7 aabf
000006c0: 6fb1 c319 2aaa 243f 2696 34de a79a 13bf
000006d0: 3e35 9fce 60e4 41bf e031 e0e5 149c 7c3e
000006e0: 1e85 92d0 0eb2 bb3e d011 3c59 ad9d b9be
000006f0: d006 dc6b ca28 be3e f820 91d1 6b1c a83e
00000700: 433a 33b5 414c 203f 4fdf ca68 741a 203f
00000710: d335 5a4c cc87 1e3f fce5 298a 134a f43e
00000720: 74b0 ab27 d5b3 bbbe f11b 18b1 8c83 96bf
00000730: 4b02 e65c da8d ef3e 7d82 39eb 7ceb 14bf
00000740: 891f 37bf b4d0 0ebf d8d6 27aa e5f7 e8be
00000750: ade6 9350 3023 18bf 99b1 594a cda9 8cbf
00000760: 66f6 673b dfd4 43bf 02dd 1639 e191 53bf
00000770: 864e 5fd2 92a4 c5be 686f 8a9e 2421 343f
00000780: 1bd6 04e4 4fdc 23bf 399f 1a5d 977a 43bf
00000790: ae45 636b 518d 063f bc8d 1748 0452 073f
000007a0: b882 bb97 4d0a 053f cca4 a7e1 1cf8 133f
000007b0: 3e9d 8f8f e858 c03e d02a 0c86 8f65 86be
000007c0: c40c 8b9c 6852 bfbe 5836 b534 a14c bdbe
000007d0: e8f0 9c82 315c 8a3e cf10 1f24 5013 b2be
000007e0: 1073 df86 f155 1b3f 8f00 8b52 6e4d 203f
000007f0: 085a f15c e7f8 95be 8c74 68b2 183f 9ebe

W1 f8 [1, 32]
-1.4411525177008209 5.8386919950215415 -0.8635061951474355 -0.0007366471533107792 -2.9809617172409415 -6.274105049676664 0.3388969994714079 2.6332993269241265
-1.6628053204971798 6.42655503336642 2.6310888373568493 -2.060767512222057 -1.0885762200347164 6.467583422375269 6.474198437620781 -1.158292210407773
-7.04633517113758 -6.141667867383823 -0.9605481859533069 0.043474032292345734 -6.689537911130937 -0.2906736816712305 -3.6743965451373666 -0.7321933258743265
-3.381921080747032 6.6454138735174535 -4.259288454901863 8.468818452416555 -1.058916101924645 -1.5238401320503898 6.732281100441883 -2.788637593960061
00000000: 5d2b 41f1 f50e f7bf 5823 0813 d25a 1740
00000010: f3a6 81be d7a1 ebbf b20f 51b7 7123 48bf
00000020: 396c f174 02d9 07c0 711e 80fe ae18 19c0
00000030: 6f4d 5c0a 7db0 d53f 55be cd3c ff10 0540
00000040: 2967 72c0 d99a fabf 0903 b9d7 cab4 1940
00000050: f18b ea4d 780c 0540 6039 6dad 737c 00c0
00000060: dc09 04e6 ce6a f1bf 9f03 4d30 cede 1940
00000070: 0b95 7546 94e5 1940 639b ae69 5d88 f2bf
00000080: 0ac3 b27c 722f 1cc0 f83a a561 1191 18c0
00000090: bed9 9c8c cfbc eebf a57c d775 3a42 a63f
000000a0: 5ca3 e639 16c2 1ac0 8f7e 25c9 659a d2bf
000000b0: f933 0f04 2a65 0dc0 ba59 9fb2 206e e7bf
000000c0: 1bb1 bba3 2c0e 0bc0 8e91 dc5f e794 1a40
000000d0: af22 a8e9 8209 11c0 e7c7 e1f8 08f0 2040
000000e0: 2196 af02 52f1 f0bf e7d1 b730 a661 f8bf
000000f0: d281 c718 dbed 1a40 00a3 133a 214f 06c0

b0 f8 [32, 1]
0.3161256421530062 -0.8673571432740956 -0.057626253553424496 -0.33729153297998204 0.5235919472288758 -0.6739870133588561 -0.29270088773028685 0.011387812363632718
0.42375850891554906 -0.34420311877334714 -0.023705395124717758 0.5460427514433127 0.09194550141027813 -0.14569660483142616 -1.028105611026523 0.11854254761534376
-0.8773447616397873 -0.623025129205026 -0.021216211043477456 -0.3538618620390253 -0.783739228407596 -0.2774996467579693 0.15785518972733714 -0.09000617220345694
0.6885260061462127 -1.5396154934254787 -1.096201831402322 -0.13007749772201233 0.06184444989625118 0.2360048050957391 -1.3220039844623197 -0.2895954649443356
00000000: a658 9e0b 673b d43f 260e 8ac4 63c1 ebbf
00000010: 0951 ce34 3081 adbf 7a78 d739 2f96 d5bf
00000020: db80 39e6 43c1 e03f 94c2 8936 4d91 e5bf
00000030: b5f3 1381 9cbb d2bf b8f6 654d 7e52 873f
00000040: 9f6a 4c02 dc1e db3f c303 9484 6c07 d6bf
00000050: 519b 3223 3a46 98bf 1f57 f5a5 2e79 e13f
00000060: a04b 9289 bd89 b73f aad1 71b4 2fa6 c2bf
00000070: 9516 83de 1e73 f0bf b742 31ed cd58 be3f
00000080: e5e9 5152 3513 ecbf 44b2 5065 d2ef e3bf
00000090: b89c 4ed2 b3b9 95bf 0198 3039 aca5 d6bf
000000a0: f34a 534a 6414 e9bf ab87 dee0 8dc2 d1bf
000000b0: 34ff b04e 9934 c43f 564f 0dfe a40a b7bf
000000c0: c7fd dab0 6708 e63f 5cd6 0adb 43a2 f8bf
000000d0: 3103 7bee 0a8a f1bf eaad 5423 61a6 c0bf
000000e0: 44ad 7c63 13aa af3f 09e3 cacb 6735 ce3f
000000f0: 5e28 67a6 ed26 f5bf 9d5f c06a bb88 d2bf

b1 f8 [1, 1]
-0.3469310568694043
00000000: b621 ce51 1e34 d6bf
