data/params.npz (npz, 202190 bytes, 4 tensors)

W0 f8 [32, 784]
000000 3a d5 13 ef 76 db 8a bf da 8e c4 3b 94 fa 9b bf
       -0.013113907977166595 -0.02732307066720705
000010 89 ef 29 a8 25 5c 85 bf d2 55 db d4 cb 0c 89 bf
       -0.010429662889911888 -0.012231438096402512
000020 cd 86 5a 12 fc db 95 bf 68 a6 19 3e f9 c8 99 3f
       -0.02134698736211398 0.025180715956969385
000030 88 75 2d 97 ae 05 a2 3f ac 46 a0 b7 30 24 a3 bf
       0.03519960017613771 -0.03738548509148862
000040 16 64 b6 d3 af f9 94 bf 97 ec cc 1e 4a 3f a6 3f
       -0.020483729645636904 0.04345161081297382
000050 d5 89 15 4a df 07 85 3f 4a fc 13 f9 03 73 ab 3f
       0.010268921326034889 0.0536118737745644
000060 2f d8 90 b9 5a 9d 9b 3f eb 86 30 3f e1 2c c4 3f
       0.02696744687656166 0.15761962495258017
000070 d8 93 4c 44 b4 01 b9 3f 2e 06 b7 6c bb 1e c5 3f
       0.09768225352725268 0.165000370105234
000080 c6 49 67 e6 27 21 b7 3f d6 2d 45 01 1e 7b 92 3f
       0.09034966826519683 0.018047779872444845
000090 6d da 76 3b 3b cc 96 3f 16 99 d2 28 97 0d b0 3f
       0.022263455871974026 0.06270737406393709
0000a0 4c 18 2c 09 c7 4c 72 bf 20 4b d5 d2 07 b1 7b 3f
       -0.004467751964290011 0.006760626374062523
0000b0 af 60 a2 25 ce 24 93 3f ce 0b 28 34 33 67 94 bf
       0.018695088431372294 -0.01992492681348406
0000c0 94 c0 62 27 c5 40 9a bf a4 f7 46 e1 61 03 9a bf
       -0.025637703446307628 -0.02540352761729249
0000d0 2e 97 dc 88 31 b8 87 bf e1 e3 42 cc 2c 5d a4 3f
       -0.011581789960085933 0.03977336877273508
0000e0 6f 0b f5 fa 22 47 9f 3f d9 ea 94 d6 22 41 9c bf
       0.0305448022529719 -0.027592224452045542
0000f0 46 97 64 fd f8 12 72 bf 3a 0a 54 ab 91 a3 8f bf
       -0.004412624947041815 -0.015448701897644235
000100 46 3a 2c 60 21 f0 88 3f 9d 36 8c 7b a4 ee a1 3f
       0.012176762340030522 0.03502382286215531
000110 8f 10 55 80 c6 67 9d 3f 78 57 8b c4 a9 d1 ad 3f
       0.028716184218197823 0.058240227930283106
000120 92 30 3a 7a 5b 09 9d 3f da 77 ea f1 94 7c 9b 3f
       0.02835600789562471 0.02684242941415236
000130 e8 c1 27 6c 54 ad a7 3f ef d7 9a 28 cd da b3 3f
       0.04624427623992117 0.07755739442185904
000140 f1 68 23 9c 93 43 ca 3f 3d 87 74 d4 84 57 d1 3f
       0.20518727420751007 0.2709667277105046
000150 c3 38 74 f0 00 fb c6 3f bd 04 10 e7 f5 c9 d2 3f
       0.17953502407949004 0.2935766941519196
000160 b9 7f 0e fb 99 e5 d3 3f e5 1a 0c c6 db 22 bf 3f
       0.3108887626385655 0.12162564835680774
000170 8f 8c a2 66 da da c0 3f e7 8a ad fb d5 5a ab 3f
       0.1316788674494984 0.05342739770164489
000180 74 56 bf 5e f3 d8 b9 3f 20 c5 fa 97 42 d4 96 3f
       0.10096665442628155 0.022294083143326593
000190 c0 6f 80 66 bd 90 91 bf 34 b2 96 d3 ad 1e a7 3f
       -0.017153701192100135 0.04515593726987213
0001a0 4c 53 bb 51 cb 4f 9d 3f 45 68 f5 00 9a 0c a6 3f
       0.02862470327712012 0.043064892403621026
0001b0 41 17 67 1f e2 8d a8 3f 7c 60 67 c3 73 87 96 bf
       0.04795748360952113 -0.02200108413839573
0001c0 f2 ac b6 64 75 24 a2 bf 8a cf 7b 1b 03 d0 a0 3f
       -0.035434406799447773 0.03283700666898344
0001d0 68 3b 51 10 b7 ea a2 bf 05 e5 20 8a b3 18 a3 3f
       -0.03694698404489466 0.037297831164730545
0001e0 a3 42 1d 00 01 07 ad 3f 00 eb 44 8d 1e 3e 95 3f
       0.05669406057734718 0.020744778988254886
0001f0 01 2f 42 9c eb 45 b7 3f 02 cc 2a b2 ae 7c b7 3f
       0.09091064991860877 0.09174625253471905
000200 98 0d e4 b6 40 a5 b7 3f b4 8c 80 21 1a af d3 3f
       0.09236530747516836 0.3075623824281124
000210 15 44 e3 07 53 d4 d5 3f 07 e1 ff c1 23 b1 cf 3f
       0.34108424921311215 0.24759337399132894
000220 5c fe 2b d5 66 ff d0 3f 6b 9e 96 0b 07 c3 da 3f
       0.2655884820705745 0.4181535351913001
000230 ba ed f1 e5 ab 47 d6 3f a5 c9 2e 67 86 53 cc 3f
       0.34812447982377714 0.22129898107739368
000240 2f 15 b8 54 ac 23 d6 3f ea 2e d3 d8 83 ee c8 3f
       0.3459273173651409 0.19477890097765932
000250 82 c8 e8 bf 05 80 b4 3f 91 bf 6b e1 4f d6 c0 3f
       0.08007846770559193 0.13154028422240718
000260 4f d1 17 d4 2c 90 c2 3f a9 10 db 01 99 1d b9 3f
       0.14502487522225713 0.0981078748255323
000270 e1 ae 60 f4 e7 87 91 3f de 41 c8 d8 2d 94 69 3f
       0.017120003023747613 0.003122415108244277
000280 87 79 74 77 04 2e a1 bf 78 6a 24 6f 7f 26 58 bf
       -0.03355421026411692 -0.001474022338305984
000290 aa ce d5 02 cc 7e 9e 3f 43 be ab ce ea 0e 72 3f
       0.029780566857381764 0.004408757415816536
0002a0 23 58 72 1b 81 3f a0 3f 79 24 a0 e6 db ab a2 bf
       0.03173449955026821 -0.03646743002179504
0002b0 e6 33 b8 01 fc 74 aa 3f 63 dc 97 c6 6d 3e 02 3f
       0.051673770151047724 3.479740628258771e-05
0002c0 73 1b 85 83 af ad b8 3f f2 fe d4 56 f5 bb c9 3f
       0.09640023194252283 0.2010485338196229
0002d0 d0 74 b3 15 cf 7b b4 3f e1 09 1f ad 2e 71 c5 3f
       0.08001417426881408 0.1675165505713059
0002e0 e4 b0 1a 9f 8a d1 d2 3f 86 47 6c cc c5 6d eb 3f
       0.2940393975975566 0.8571499817501127
0002f0 e6 69 8e a9 7c da ec 3f 96 00 0e 4f cb e5 db 3f
       0.9016707717558432 0.43590052337823104
000300 93 ca 3a fe 9a 07 e0 3f 05 4b e3 63 45 5f d2 3f
       0.5009283986494942 0.2870648837535302
000310 7f 62 9e 45 5f 40 c5 3f 17 0d 7b c0 49 6d a4 3f
       0.16602698230123633 0.03989630198113952
000320 28 67 66 7c 38 55 bb bf 1e 0b f4 65 a1 09 64 3f
       -0.10676911389455468 0.0024459984121007047
000330 b5 64 5d d9 d3 90 c4 3f 2c f1 99 18 fd 07 c3 3f
       0.16066978562847614 0.14868129445302125
000340 84 5d 0e c1 ac 8a cf 3f bf c8 69 a8 04 37 be 3f
       0.2464195196778115 0.11802701102877487
000350 30 57 68 6f b5 1e 90 3f 23 12 22 a6 af f3 5b 3f
       0.015742144512919498 0.0017060485193108952
000360 54 c9 9b 94 aa 23 a0 3f d7 1d 9a bb d6 6e 93 3f
       0.03152211250371076 0.018977503967588873
000370 b4 51 6d 8f 2b 24 a3 bf 4c ab 00 0f a7 2e 8b bf
       -0.03738533140009129 -0.01327257647070259
000380 3c 30 7e 96 eb 05 a8 3f 07 be 30 7f 9e e8 a1 3f
       0.04692016803809948 0.03497786810509856
000390 12 51 ff aa ad 4f 89 bf 02 d4 1b ba 1e ec 8b 3f
       -0.012359005719112779 0.013633956961237818
0003a0 4a 7d 5e d1 a7 aa c2 3f ee a8 23 b0 bb 75 d0 3f
       0.14583299372768926 0.257185861598045
0003b0 bb b6 f1 4c 0d 21 c9 3f 3c 43 29 a1 07 ed d4 3f
       0.19632116562882182 0.3269671510543508
0003c0 9e 03 d2 61 a8 8f dd 3f 99 88 bf 87 b1 55 e9 3f
       0.46189317276735575 0.7917106295901873
0003d0 d9 46 4d 74 4c 1a ca 3f de c2 f4 05 46 bc d1 3f
       0.20392757109453077 0.27711630422258604
0003e0 2a 87 29 9b a9 68 b6 3f 31 bd b3 3f 29 f0 db bf
       0.08753452337398629 -0.43653327198895214
0003f0 71 36 67 9c 7f 7a e4 bf 19 f1 46 04 ae ff de bf
       -0.639953427767706 -0.4843554536598887
000400 22 14 48 12 b4 69 c2 bf 53 65 ff 18 9a 55 cc 3f
       -0.1438508118882576 0.22136236401164897
000410 9f 3a 36 97 4b 82 e9 3f 1f be 67 8a 1e a0 e2 3f
       0.7971551850658506 0.5820458129146039
000420 91 60 59 b0 4a f6 c3 3f 9a d7 fb 58 e4 a1 b0 3f
       0.15595372782513953 0.06497027561621707
000430 19 bc e9 8b 6d d9 a9 bf f2 b4 f8 b0 87 e8 8f bf
       -0.050486968354441504 -0.015580234611741937
000440 9f 5a 90 84 ba f2 7a 3f 1c 26 17 df 10 ae 9c bf
       0.006579140267624211 -0.028007758728369678
000450 c5 13 3e a3 e8 3b 9e bf c3 61 21 14 b3 73 9b 3f
       -0.029525408710032303 0.026808546165143953
000460 47 75 84 30 47 71 5f bf 77 75 42 bf 7e b4 a9 3f
       -0.0019190974435966 0.0502051933737943
000470 94 3c 5b 2b 87 94 a6 3f e6 2c e0 5e 15 71 9c 3f
       0.044101928751495795 0.027775129237892403
000480 ba 87 fd 79 ec ab c8 3f ee 52 c4 ae 88 02 d4 3f
       0.19274669605789346 0.31265465800360814
000490 3e e8 c3 87 83 ff e0 3f f3 1e 46 f5 a1 f6 ee 3f
       0.5311906482377322 0.9676065245157289
0004a0 87 e8 3d be 11 9e e7 3f 86 33 52 d6 01 ab d8 3f
       0.73804556995971 0.3854374497394065
0004b0 95 22 36 b2 6e 0c dd 3f 0b 09 b9 9d d3 da b8 3f
       0.45388381389106175 0.09708902931837231
0004c0 6c 52 b2 8e 4a e0 e3 bf 86 16 85 6d dd a6 f6 bf
       -0.6211293017427812 -1.4157385137672533
0004d0 b9 09 9b c8 fd fb f3 bf 0c 2e 37 71 e3 28 cc bf
       -1.24902132379121 -0.2199978163538251
0004e0 81 7e f9 2c 81 6b 4d 3f 5b 74 b3 30 29 b7 c1 bf
       0.0008978253117212926 -0.13840212705591423
0004f0 e1 dd eb 42 12 5c d3 3f d9 3c 64 1c 54 95 e2 3f
       0.30249458823479186 0.5807285837671784
000500 fe 27 d7 ab a0 ea d4 3f cb d5 85 3f e8 54 b8 bf
       0.3268205335740503 -0.09504558134889078
000510 e8 51 32 bf 59 71 b1 bf 17 80 a4 03 c4 ea b3 bf
       -0.06813584249386617 -0.0778009899991051
000520 cb d9 36 8b 27 6a b1 3f 61 81 39 fb d2 94 88 bf
       0.06802603863511718 -0.012002609531180654
000530 d6 4a 10 b3 66 37 a6 3f e0 c1 07 fe 02 4c 94 3f
       0.043391427381853795 0.01982121158101957
000540 37 59 07 6f ea 82 9d 3f f9 0c c9 da 29 83 94 bf
       0.028819716478971826 -0.020031599024389533
000550 33 6b 99 47 ab 5f b3 3f 5e 13 cd 08 af 2c af 3f
       0.07567854402570333 0.06088778479037303
000560 59 db 3e 51 1e ef d6 3f 2b cf 99 c7 c7 34 e4 3f
       0.3583446305669234 0.6314429186299767
000570 c7 23 43 df 2a 35 f0 3f 4d cd db 7d da e6 f0 3f
       1.0129803391630376 1.0563607136108033
000580 bd 04 f2 0a 9a 35 e9 3f b7 cf f8 0c d1 b7 f0 3f
       0.7877931798722312 1.0448771006312947
000590 63 1d 40 3f 95 c4 d8 3f 67 51 19 e8 95 64 82 bf
       0.3869984738998566 -0.008980914254757178
0005a0 56 65 a7 1a c7 9d c0 bf 09 de 85 06 cb ae c5 3f
       -0.12981499482593034 0.16939676111699978
0005b0 83 bb 5a e1 5d 63 bf bf 1d 4e fc e7 bb 19 e2 bf
       -0.12260996581856713 -0.5656413584678749
0005c0 ef d7 e2 24 38 62 cc bf 7f dc 38 70 94 b0 cc bf
       -0.2217474155528971 -0.22413878898234782
0005d0 24 e4 1d db a5 45 b3 bf 9c 79 09 c2 5d af d7 3f
       -0.07528149222879726 0.3700785059826559
0005e0 77 66 73 6b 4b 76 e9 3f 19 d3 0c e2 6b 72 e1 3f
       0.7956902598045436 0.5452174582520427
0005f0 33 e7 7a 5b a1 7b c3 3f d4 f9 4b d9 45 16 67 3f
       0.1522103974037293 0.0028182377085379327
000600 87 42 cf 0c cf 87 ac bf a0 30 46 c3 f1 94 b1 3f
       -0.05572363883368774 0.06867896096645376
000610 32 d0 c7 48 18 8f a4 bf be 64 05 c2 55 3d a3 bf
       -0.04015422714647378 -0.03757732385083433
000620 a6 54 cb 23 4e 6e a8 3f 2a f0 13 b0 ed 3b 87 3f
       0.04771656214658408 0.011344773231478273
000630 a8 3e 2a 8f 0d 02 b7 3f 43 3f 6e 0c e5 83 c8 3f
       0.0898750757717105 0.1915251074501559
000640 0e 99 27 c1 b2 04 db 3f 9e a0 64 44 13 20 e7 3f
       0.4221617590213932 0.7226654372980368
000650 3b b5 50 5a 33 30 ec 3f cb e9 e8 e1 1e da e4 3f
       0.8808838619203593 0.6516260540295716
000660 7c 50 9b 80 6c 75 da 3f fd e7 3b 0f d0 b7 ec 3f
       0.413416982262113 0.8974380776919585
000670 6e be 4f c6 aa 88 e3 3f 2e 2d c6 c4 74 c7 dd 3f
       0.6104329942008471 0.46529883590911225
000680 71 fa 66 32 b6 53 e6 3f bd a7 1e 98 23 a9 e0 3f
       0.6977187141818161 0.5206468554581459
000690 5d 0c b2 a0 db e2 d8 3f 20 83 d6 cf a9 34 60 bf
       0.3888463086406711 -0.0019782368314768123
0006a0 52 5f 4a b4 4a 59 d6 bf 51 e6 f1 6e 68 7f b8 bf
       -0.34919993978973196 -0.09569409092537141
0006b0 06 82 21 f1 87 78 d6 3f 3d 8c 1c f5 3b 40 d6 3f
       0.35110662982882024 0.3476705449740541
0006c0 77 b2 0a c8 18 27 e7 3f b0 d2 ff 34 7d b4 e8 3f
       0.7235225588861586 0.7720323596136804
0006d0 86 e5 ac de f7 77 db 3f 85 32 b7 ca 79 a0 c8 3f
       0.42919728036539373 0.1923973312208497
0006e0 b3 c7 63 95 70 6c c0 bf 65 35 ab 23 cc a0 8a 3f
       -0.1283093194429604 0.01300200923779
0006f0 8a b1 ea 4f 99 5b 9d bf d7 27 83 9a a1 9b 86 3f
       -0.028669734480602872 0.0110390305784626
000700 7e ae 1a e5 5a a1 9c 3f 92 a5 67 5c 87 b9 76 bf
       0.027959270699894116 -0.005548027757393286
000710 0f 96 f3 29 0f 25 c9 3f be 4c 23 1e e5 19 d2 3f
       0.1964434580651617 0.2828305048289613
000720 17 eb 97 a1 45 5d d4 3f e7 47 b1 e6 f0 58 e1 3f
       0.31819287090881815 0.5421070581162412
000730 86 26 76 c3 79 ff e1 3f a1 ae ac 9c 25 a9 da 3f
       0.5624359910591046 0.4165739088082124
000740 18 19 0b d6 54 ca e2 3f ab e7 29 8e fa e0 e6 3f
       0.5871986561330997 0.7149632240900606
000750 f9 29 76 8b 83 0d df 3f 92 e4 e3 1e f2 7e e2 3f
       0.48519981974882814 0.5779963115047784
000760 21 cc c7 64 6c 56 da 3f d3 45 3b b6 6d e2 ac bf
       0.41152486650315906 -0.05641501283174546
000770 98 66 48 e2 4c 46 e1 bf ab bc a0 7a 3a d4 f1 bf
       -0.539831582983612 -1.114313582434799
000780 ec 00 93 7e 9e b2 ec bf 1d 7a 4e 70 bf 3d e3 bf
       -0.8968040916588769 -0.6012875741469689
000790 c4 11 ce 0c 4d 6c e0 bf f8 20 9d 35 c0 6f e2 3f
       -0.5132203340622756 0.5761414572853303
0007a0 3f 37 b1 ba 7f d7 85 bf 81 08 c3 3c fe 37 e0 3f
       -0.010664937863250066 0.506835097003446
0007b0 ea 54 20 c2 58 cc e2 3f a7 f5 ad fc 88 18 db 3f
       0.5874446670083249 0.4233725040029079
0007c0 be fe 5f 6e 42 2d 9e bf d0 bd 6f f9 b0 67 b3 bf
       -0.029469526278261375 -0.0758009537673765
0007d0 93 ad be 5a d0 da 87 bf db 40 af 6d 75 73 94 3f
       -0.011647823113739608 0.01997169000588959
0007e0 02 dc fd b3 a0 bb a5 3f 4e fa f0 8a 25 cd c8 3f
       0.04244711110271028 0.193760578958932
0007f0 58 2c db 99 de 2b d4 3f 55 43 91 b9 aa a8 d7 3f
       0.315177583933012 0.36966961023158734

W1 f8 [1, 32]
000000 fa 43 86 bc de c3 13 c0 e1 cb 26 93 a6 2e 21 40
       -4.941279359526556 8.591114614950074
000010 5a 83 b5 5a 97 01 d7 bf 92 6a 19 f8 cc 4f 19 40
       -0.35947212084106683 6.327930332709586
000020 5d 16 bc 94 ee ca d7 bf 82 91 06 5c de 1a 1e 40
       -0.37176098370432503 7.526238859082129
000030 1c 0a 00 1d cc f3 ed bf 41 6a 92 65 8a ee ed bf
       -0.9360104147347701 -0.9353687270953018
000040 de 9e 6b 34 67 22 1d 40 aa 7d a9 a5 06 2e 1b c0
       7.283596819943083 -6.794947231740858
000050 ab a3 02 85 1c 09 ed bf b7 4a cb f9 64 a3 f3 bf
       -0.9073622320039382 -1.2273912198622108
000060 d8 cc 18 17 0d 2b da bf d7 31 05 29 4b 11 15 c0
       -0.40887763267092003 -5.266888276044901
000070 43 ac 11 40 1a 3c 1d 40 69 04 e6 4b 6e 15 f5 bf
       7.308693886831921 -1.3177321400437683
000080 1f 38 67 d1 9c a8 1e c0 12 68 d9 eb 1f 56 20 c0
       -7.6646607131242765 -8.16821229008568
000090 be 4e cf ec 88 d1 b0 bf a5 61 4e 3b 19 16 0f c0
       -0.06569724828232901 -3.885790313081275
0000a0 d7 fe cb 93 52 c7 f7 bf cc 03 36 3e 34 a8 bb bf
       -1.486162736255144 -0.10803534048865443
0000b0 fd ee ed e6 ba d2 f8 bf 82 e1 be 40 3c 7f 11 c0
       -1.551447774952009 -4.374253284120984
0000c0 33 25 b8 d7 55 05 19 40 cb 25 e3 89 02 0e 00 c0
       6.2552102762359025 -2.0068407795376735
0000d0 c9 fb f5 01 91 4c f8 bf 1d 54 c8 51 be 60 ed bf
       -1.5186929775807008 -0.9180595013918978
0000e0 f4 c3 f7 4e da db 0e c0 07 f0 16 f3 09 b1 f6 bf
       -3.857349984108163 -1.4182223792731763
0000f0 9f 19 a1 d5 62 55 01 c0 3e e1 55 44 67 ff db bf
       -2.1666924180783123 -0.4374635855997616

b0 f8 [32, 1]
000000 2b 24 ab a1 0b b0 d8 bf 6a 2b 4d 50 ae 8d c6 bf
       -0.385744960669913 -0.17619875832528048
000010 db 23 7d 19 c3 f3 cf bf 39 10 f5 07 a9 45 e4 bf
       -0.24962652916499803 -0.6335034518638231
000020 95 08 92 1a d7 0b d1 bf 8a 78 f9 57 84 0f c5 bf
       -0.26634767145891064 -0.16453604026441254
000030 c3 da 65 2d 66 ee 98 3f 3f 04 c5 84 fc d1 a8 3f
       0.024346920510164304 0.0484770690986882
000040 81 19 8a 07 67 31 fa bf d8 dc 91 3c a7 12 9c bf
       -1.637061147166236 -0.02741490657032561
000050 9a d6 31 57 c8 43 7a 3f 44 73 16 4f b6 f6 c8 3f
       0.006412298756108515 0.19502905713752672
000060 50 37 f5 25 04 8a cf bf 12 b2 0c aa a3 0f c4 bf
       -0.24639942029392126 -0.15672727397158376
000070 65 1a 5a 43 30 ae f9 bf 5a 47 c4 4b 99 15 cd 3f
       -1.6050264960228102 0.22722164344355172
000080 1e df 0f 87 7c ac f9 bf 95 55 a6 e4 85 c6 f5 bf
       -1.6046109462603861 -1.3609675342207528
000090 c2 c2 e4 35 93 c3 d4 bf 19 2e 05 79 4a 52 e2 3f
       -0.3244369531922012 0.57254527699246
0000a0 79 56 35 60 38 88 db 3f 7e 68 f2 d6 ad 09 d5 bf
       0.4301892222914386 -0.32871576300534133
0000b0 cd b9 5c 59 ce 53 da 3f b9 ef b8 78 d0 99 ed 3f
       0.4113651154210885 0.9250261648044137
0000c0 60 25 53 54 c5 2c f7 bf 55 61 3a b9 eb 0b e1 3f
       -1.4484303754746506 0.5327051751838022
0000d0 8f d6 e3 3a 85 f2 d9 3f 9b 70 bc b5 b1 15 84 bf
       0.4054272723291001 -0.009807003363271163
0000e0 92 60 fd 8a 05 17 eb 3f f6 cf 41 fd d1 fc d6 3f
       0.8465602602618836 0.35918092472206753
0000f0 76 51 80 cc 70 eb e7 3f 84 fb df 9d 60 90 d0 bf
       0.747490310112467 -0.2588120977160815

b1 f8 [1, 1]
000000 fb d8 12 b7 be b9 0d 40
       3.7156957914950204
