data/params.npz (npz, 202190 bytes, 4 tensors)

W0 f8 [32, 784]
0.03887264617151996 -0.027059948780672995 -0.02156107188441684 0.03542399500448956 0.020975940616127856 0.04658667979167104 0.01203151784170996 0.013072754370233135
0.0022819051998594123 -0.043770982615114015 0.053455377886859806 0.04023128061919996 0.003327248999754199 0.0685281974332995 0.032515273704186644 0.058995064701288145
-0.010543252478490896 0.03328473260458375 0.015815110379681436 0.018496811995443216 0.030018313912521986 0.03632243798453073 0.0116568787607581 -0.03361212517969033
0.006598618480754028 0.011569598893292022 -0.02975929204077087 -0.012165357883173432 0.00046552332698045207 -0.04933521066349943 0.016703309337040603 -0.013776367212889842
-0.02713399132121238 0.04388771913900614 0.009228732123247312 0.008973424354390342 0.019303596411049458 0.004327908550338772 0.06960585309444424 0.046755834687475385
0.09401538496546596 0.07076191865290757 0.06019846705947535 0.03963067446480589 0.11327971645209298 0.03983478671135185 -0.0018689666863019297 0.003818219452925892
0.052144619002724955 0.06388549674283187 0.01809094832921558 0.04393242385933071 0.04539022360511421 0.005941599852831559 0.034984246826207904 0.0019518436424632787
-0.0012613956255436015 0.026966238328633055 0.022505689146540282 0.042667605517233385 -0.02911176993611244 0.048580304679680476 0.05324426082050431 -0.01107568968228559
0.05909818738492076 0.09150098892104461 0.196009100085855 0.05820480636352637 0.0060500090071490846 -0.01326554144603545 -0.05921554461913146 -0.03519639496171028
0.019622528468616993 -0.019117850343914205 -0.013041352752692333 0.08657268254412752 0.03613771645864288 -0.017260076807433238 0.020088423666171355 0.03565801948851605
0.02596267208650794 0.023159785840009016 0.04412104638329838 -0.01880543890376395 -0.014609085818887445 -0.04225203776444634 0.00779907061132437 0.043916141435292905
0.031518442521347806 0.08699943533056967 0.08815212498194534 0.0700403519486156 0.06022028349611044 0.19722213000418218 0.1633723207501487 0.1790335065459637
0.15975715808980637 0.08158202511204786 -0.01709149535089912 -0.052832589873840936 -0.03389361553274124 0.0022208373814451505 0.002577172282352403 -0.020922157487268486
0.03482295406455464 -0.006091542782022168 0.003923310697904193 0.04740525431986773 0.05391193730920224 -0.030089116864072164 -0.04146672968349593 0.02994127484836326
0.04772625640393979 0.012458894903972763 0.036115844086140665 -0.009910815964560529 -0.0019351834653678975 0.05542970115306907 0.14782690175759125 0.18362511051767516
0.14726752011482974 0.08904826017426114 -0.033188953235727806 0.11561562929526177 0.17298772210072666 0.15669323454552578 0.20967164678536696 0.05831363479422408
-0.014488767761304082 0.08321283766276168 0.08616717284014172 0.05037899642817775 -0.10980582568676583 -0.10736418121093776 -0.11948844633229162 0.013736305342915334
-0.030824225618777977 0.037299531504179737 0.021805946559717116 0.03134620941313255 0.03291078697045299 -0.029178979285062023 0.0045380479028514775 0.046157390779811104
0.10970267709114524 0.1237486459037229 0.2921845111563271 0.3036914691418358 0.1855544329519636 -0.06966448416113115 -0.019498115617873183 0.07307077271766134
0.1519455093044553 0.04336154387970641 0.21415954031247914 0.3990383485500376 0.15912549497681922 -0.03492165534163011 -0.049541701054394954 -0.006540062133949648
-0.14631541121419284 -0.24136979016659482 -0.21336562942096202 -0.12264454895699001 -0.009103919830719096 0.047728029160065216 0.03437348029722276 0.0052076599741746115
-0.04081789667842377 -0.031565589104388114 0.04653607132140887 0.06616231265497592 0.15063621676724412 0.2247009947088441 0.2848844264654202 0.16131514822831575
0.15394884617250268 0.14433349283485397 0.09253515809097249 0.5229681396063496 0.5728151477617007 0.5488376876884481 0.26973864836068984 0.14765176603379368
0.5405449454124964 0.3623730321058648 0.17545485276260236 -0.0063698246087446455 0.08784735244322964 0.025814359878094124 -0.17638581186087604 -0.18652010833594987
-0.06702057024429595 0.021481141508343005 0.02819927332821846 -0.006316851996924666 -0.04132901290940446 0.01117156877155568 -0.005029079309688594 0.037194884265367205
0.22096085070571592 0.2171738440541426 0.047958512463583965 0.03794697729059697 0.07894415393545885 0.2809675554572508 0.3269602951947565 0.40679810748727774
0.2977995243593276 0.007440151687403331 -0.02144702949005915 -0.17131681097126006 -0.20007014730328568 0.1588397938047849 0.35491264037191356 0.22206965095607625
0.1435832589336924 0.08490196297349618 -0.09202966472369345 -0.154596964844096 -0.12852994180091468 0.03497523553051498 -0.005733184288139154 -0.03842718036942959
-0.0011955782940795126 -0.008635170264367116 0.08749925041335528 0.10978284386924893 0.15401047005542887 -0.012159311899057444 -0.20830426388350004 -0.1738205103833008
0.5927956059616895 0.29954530646239336 0.3252076200735416 -0.04121245209433693 -0.0691993396002823 -0.20473288588410216 -0.22286183041922616 -0.21065260027255997
-0.4088087783649632 -0.2915497573057849 -0.12391143733638686 0.588542388931761 0.3978149856590326 0.17184132001567903 0.11435686488725608 -0.10058517612601457
-0.15869778204244706 -0.0844719662371427 0.04779127592420352 0.025034174267319104 0.014096304354244357 0.05515721715766292 0.14477405892238468 0.12957764327384744
00000000: 4e04 0890 1de7 a33f e77d 2d6c 9ab5 9bbf
00000010: 0aec 700a 1b14 96bf 306e 1308 1823 a23f
00000020: c4e2 cb8b b77a 953f cad6 4494 35da a73f
00000030: 3a09 36fd faa3 883f fc0b e963 e3c5 8a3f
00000040: 4b4b 9786 80b1 623f 7eff b075 2669 a6bf
00000050: 5c86 a3d7 805e ab3f 5a42 12c5 3199 a43f
00000060: bb8b 7734 bf41 6b3f 3771 d45e 108b b13f
00000070: 1525 5c8a d7a5 a03f 73ed 08e3 9934 ae3f
00000080: 546e b564 b397 85bf 3f4f fc4b b20a a13f
00000090: 2515 7417 d631 903f 0c1b 670a d4f0 923f
000000a0: 2631 24f2 1ebd 9e3f 1154 82c6 da98 a23f
000000b0: 9d3a 68c8 8fdf 873f fba9 cac4 9b35 a1bf
000000c0: e98b 2d29 2707 7b3f 0708 ff46 cdb1 873f
000000d0: 5dd6 4448 3879 9ebf 4cd8 04b2 26ea 88bf
000000e0: 0017 0477 2f82 3e3f 9f97 aef8 7642 a9bf
000000f0: 8ca9 591d ac1a 913f e8ac 18b5 c836 8cbf
00000100: 9695 5655 03c9 9bbf 21cf cb7c 7378 a63f
00000110: 5c1f 3975 83e6 823f d7f6 14a1 a860 823f
00000120: 3260 1f6d 52c4 933f 47c7 f01a 24ba 713f
00000130: 099c a66e b0d1 b13f d580 c279 61f0 a73f
00000140: e45d bf6b 6411 b83f 7e9c 6afe 731d b23f
00000150: 085e 945e 55d2 ae3f a851 7dc5 784a a43f
00000160: 963e 7645 e6ff bc3f 6c37 56a4 3965 a43f
00000170: f7f4 e0b2 039f 5ebf a78f bcf5 6247 6f3f
00000180: 13e4 8e12 b3b2 aa3f 4afd 32c7 cc5a b03f
00000190: 8cde b5fd 6e86 923f 8f6f 6b87 4f7e a63f
000001a0: fb59 e22b 633d a73f ce7c dc10 3856 783f
000001b0: 6ccd fc87 74e9 a13f 604c 1f27 a0fa 5f3f
000001c0: c0b3 603d adaa 54bf f4d7 de9e 099d 9b3f
000001d0: c2ee 6e3b bb0b 973f 731d 9744 87d8 a53f
000001e0: e694 37cf 79cf 9dbf 456b a887 84df a83f
000001f0: 17f7 d8ed d442 ab3f 517e bae7 d9ae 86bf
00000200: 1c69 241c 1e42 ae3f 06b1 f7da 9b6c b73f
00000210: 5727 4b81 d316 c93f a74b 9a37 05cd ad3f
00000220: c328 38ed e4c7 783f 9048 65d5 f62a 8bbf
00000230: aea5 1bf7 7f51 aebf e764 980a 4305 a2bf
00000240: 9c70 2698 ed17 943f 3bdc fc37 a193 93bf
00000250: 311c 8cbc 6cb5 8abf 4f07 4198 a029 b63f
00000260: 9719 af8c a480 a23f 9e51 a825 a0ac 91bf
00000270: 7e95 b24a 0f92 943f 592c 1697 c441 a23f
00000280: e200 1d6e f595 9a3f 4691 0feb 32b7 973f
00000290: 5f29 90a6 0897 a63f 7d7a 50a4 bb41 93bf
000002a0: 8c5a 884e 5eeb 8dbf 957a c620 0fa2 a5bf
000002b0: 9ff4 6f13 ebf1 7f3f e451 762e 2d7c a63f
000002c0: 0c39 b36f 2f23 a03f 52e8 8351 9845 b63f
000002d0: e7cf de3d 2391 b63f ba06 051d 2aee b13f
000002e0: 93e1 5768 31d5 ae3f 932c 3523 933e c93f
000002f0: f7c4 585b 62e9 c43f 1b66 c0e7 91ea c63f
00000300: 6b18 a62c ec72 c43f d335 cc41 8fe2 b43f
00000310: 7692 49d6 6e80 91bf 099e 578b df0c abbf
00000320: 8a3c 8304 815a a1bf b28d 89fd 6e31 623f
00000330: b54f 67d5 b81c 653f 4ca6 ad38 9e6c 95bf
00000340: 86f9 b671 50d4 a13f 78da 7e10 72f3 78bf
00000350: 0194 3bb2 e311 703f fdbe ec61 8045 a83f
00000360: 18cc 366f 589a ab3f ad3b 9673 aecf 9ebf
00000370: 2bb2 b98f 203b a5bf 98d9 18f1 eca8 9e3f
00000380: 80b3 d46c 936f a83f f441 4191 0c84 893f
00000390: 4150 6fa2 c67d a23f 2e42 8e33 1f4c 84bf
000003a0: a251 836c bfb4 5fbf 7ae5 5b23 4861 ac3f
000003b0: 3749 42ee fdeb c23f 20eb 3212 0781 c73f
000003c0: e2fe 537f a9d9 c23f 97d2 36e5 ddcb b63f
000003d0: 12cb 7879 24fe a0bf a5c7 ba62 fc98 bd3f
000003e0: bc1d 8430 7624 c63f 9d51 f01e 860e c43f
000003f0: 07ba eb40 85d6 ca3f d843 b4e4 48db ad3f
00000400: 5c99 8d7d 49ac 8dbf 7171 5ec0 6f4d b53f
00000410: f651 5645 0d0f b63f 1cef 209c 46cb a93f
00000420: c424 3c0e 3c1c bcbf 5b13 100f 387c bbbf
00000430: 413e 3f79 cb96 bebf 6dbc b9b1 c721 8c3f
00000440: 2626 d4c3 6290 9fbf bee2 ee97 ec18 a33f
00000450: bd48 544d 4c54 963f a9e1 9040 9c0c a03f
00000460: 3c8b 72c3 aed9 a03f 303e 0a27 18e1 9dbf
00000470: 606f 49f5 7c96 723f f567 bc07 f1a1 a73f
00000480: b9de 6382 7915 bc3f 9fad 14c3 fdad bf3f
00000490: 651b f4a9 26b3 d23f c974 0258 ae6f d33f
000004a0: 7808 9466 3fc0 c73f 412e 2a19 88d5 b1bf
000004b0: 214a a663 50f7 93bf 5da5 1d23 c4b4 b23f
000004c0: 294c 9e50 f372 c33f e61c bcf9 7b33 a63f
000004d0: ee5d e26e 9469 cb3f 1ed3 3724 d889 d93f
000004e0: e64f 7166 395e c43f c89d 3a4f 40e1 a1bf
000004f0: 3438 a2a3 875d a9bf 877b aa8f c0c9 7abf
00000500: 7e6a 08a1 76ba c2bf 1a03 818d 34e5 cebf
00000510: df0b 3aa0 904f cbbf ac8d cd16 a265 bfbf
00000520: b2ba 816f 13a5 82bf bca5 b0e8 ce6f a83f
00000530: f0d9 739b 6699 a13f 07bd 7194 a054 753f
00000540: 9692 a656 15e6 a4bf 90bf c369 5d29 a0bf
00000550: facd d170 93d3 a73f 7db2 1469 03f0 b03f
00000560: afe2 4d2c 0c48 c33f 919a d38f 00c3 cc3f
00000570: b0c1 b3e3 8b3b d23f 99b8 fe8a f9a5 c43f
00000580: c7ae c885 98b4 c33f 14b9 b817 8579 c23f
00000590: 5a1d bb55 62b0 b73f 0bb2 0eae 27bc e03f
000005a0: f646 c96e 8054 e23f 87e4 ed0d 1490 e13f
000005b0: 404a 4be4 6543 d13f a7e8 27c9 40e6 c23f
000005c0: a812 d2e9 244c e13f 0636 76a8 1e31 d73f
000005d0: 8a1a 45fb 4d75 c63f cd55 03c6 3e17 7abf
000005e0: daaa c801 2a7d b63f 253c c65d 146f 9a3f
000005f0: 1edf b56e cf93 c6bf 43b5 ac12 e4df c7bf
00000600: 16c8 5b95 4228 b1bf 9d4c 0901 27ff 953f
00000610: dbd6 dc32 45e0 9c3f 80f0 d80b b3df 79bf
00000620: 0bca a48d 1329 a5bf 0499 2694 1ee1 863f
00000630: 392a a032 5f99 74bf 8f1b ff36 350b a33f
00000640: 101b bdf5 7148 cc3f b72b e13e 5acc cb3f
00000650: 011a 31a5 048e a83f 26ed e344 c96d a33f
00000660: b9f9 5c1f af35 b43f e742 7b57 5ffb d13f
00000670: 53ed bcdf eaec d43f 1ce2 eeed fa08 da3f
00000680: 8bcf 78bc 250f d33f 9c79 cb82 9079 7e3f
00000690: 9b4c 06c9 35f6 95bf a433 3092 b5ed c5bf
000006a0: ed68 c909 e69b c9bf 9ef3 d8c3 dc54 c43f
000006b0: 7366 d581 e3b6 d63f 892e 2540 c76c cc3f
000006c0: 94c8 afac ef60 c23f d15d 5692 22bc b53f
000006d0: 1807 4090 418f b7bf 037b 0856 d5c9 c3bf
000006e0: 37bd 4b4c ab73 c0bf d302 8c29 46e8 a13f
000006f0: e0dd 4ff0 ad7b 77bf beaa ed35 baac a3bf
00000700: fc72 106b 9e96 53bf 44fa 0bef 50af 81bf
00000710: 092b f3d2 5966 b63f 6d8e 147c ba1a bc3f
00000720: 8398 1076 9db6 c33f 5f26 9637 fbe6 88bf
00000730: 429d 7fd0 b6a9 cabf f732 bc1f c03f c6bf
00000740: b82c 9a7d 2ef8 e23f 1f48 bb13 c02b d33f
00000750: ff0d 289f 33d0 d43f 07c5 dd6b cc19 a5bf
00000760: 3cee 7c44 0cb7 b1bf 86da a4ec af34 cabf
00000770: edb0 9688 bc86 ccbf f976 7e16 aaf6 cabf
00000780: 704b 594b ec29 dabf ce3e 3250 c0a8 d2bf
00000790: 67cb f5f2 a8b8 bfbf 29b1 18d9 56d5 e23f
000007a0: 8ae9 50fc cc75 d93f d2ce c878 e5fe c53f
000007b0: 0a8c c3d2 7d46 bd3f 2f73 ec39 f3bf b9bf
000007c0: 46f7 e87b 3550 c4bf 10d7 6a6c f49f b5bf
000007d0: 71d3 411e 1978 a83f 98c0 0aff 8ea2 993f
000007e0: fe49 91f1 85de 8c3f 883b a917 913d ac3f
000007f0: afbe 30d4 f487 c23f f3b3 130e 0096 c03f

W1 f8 [1, 32]
-3.9315411139853693 -0.09202987670710386 4.335279628598476 -0.8520822420979437 2.5280391051307496 4.460586949598553 -0.9539896638140755 -0.7786187968292633
-1.2496817152556867 -2.642119044508004 -2.821864142211001 -0.8957617690149813 2.9694684455122324 1.3639187156772412 -2.011541142507362 -0.8755054085571966
-1.7590336224989167 1.8865376479760116 -2.007117482850794 0.5414064882779713 -0.755282102761788 0.9616341541173273 -1.0177397960449635 0.3805180271697192
-0.6151746038884307 2.657279202585216 3.941247302975523 0.7137661463035694 -0.6139612020905723 -1.2746876669374274 5.853754553417292 -3.056552343073901
00000000: 9392 dbd3 cb73 0fc0 9a40 b61e 458f b7bf
00000010: c661 ff8a 5357 1140 4804 6afa 4144 ebbf
00000020: 8b5d fc90 6c39 0440 f3f5 f51a a4d7 1140
00000030: 2eb6 d954 1587 eebf 7cd7 8df7 71ea e8bf
00000040: f1ea 1641 b2fe f3bf b967 424f 0f23 05c0
00000050: 2669 e481 2d93 06c0 7ca5 dd95 14aa ecbf
00000060: fcd4 1fac 78c1 0740 f5c6 636e 9cd2 f53f
00000070: 5105 ede1 a217 00c0 492d 27eb 2304 ecbf
00000080: f727 9370 0025 fcbf faac cb19 422f fe3f
00000090: 8e97 609c 930e 00c0 01e0 1fb3 3353 e13f
000000a0: 32b6 535f 452b e8bf 43d1 54fd b4c5 ee3f
000000b0: fe9c 3d86 a948 f0bf 5fdf 8e48 685a d83f
000000c0: 62fa a0a6 82af e3bf 428e 3b99 1b42 0540
000000d0: 19d3 7daa ac87 0f40 7cb4 eb19 2cd7 e63f
000000e0: 46bd 7ff6 91a5 e3bf cdc5 21e5 1e65 f4bf
000000f0: 13f4 36a2 3e6a 1740 da1d 00b7 d173 08c0

b0 f8 [32, 1]
0.1958449830680119 -0.10560111191148305 -0.8689534935624255 0.002609075942108083 -0.5308792697196444 -0.7887236111834324 0.05084477055574857 0.008970099902942202
0.20194316862157563 0.11001629999121619 0.0547667317311442 0.03690563506384405 -0.33709592579761627 -0.09657227958371473 0.36429842199526286 0.02487283499092357
-0.05493523156731929 -0.14937110700574488 0.12454370201483127 -0.06909108415484431 -0.02049010614961029 -0.06413940510131007 0.07408113515489224 -0.09396932731942724
-0.03817310240205947 -0.23125489476163552 -0.9253728462078133 -0.057364572654317735 -0.058542035426113206 0.21670346721986078 -0.3383353270257014 -0.05383731581114583
00000000: bc6f aeca 7211 c93f 12c0 14aa ac08 bbbf
00000010: dc0e 938e 77ce ebbf 9426 03fb a05f 653f
00000020: 5f3f b285 f6fc e0bf 24b5 734c 393d e9bf
00000030: f44b 6b65 5308 aa3f 50c7 cc6d ea5e 823f
00000040: 0aad 7014 46d9 c93f 1f3c 7d3a 072a bc3f
00000050: 1e5d 6393 620a ac3f f24e 469f 4be5 a23f
00000060: 4499 3aca fa92 d5bf 1021 83fe f5b8 b8bf
00000070: 560f 1d54 aa50 d73f ce18 61b3 4378 993f
00000080: 62ab f57d 7820 acbf 794b c7a9 971e c3bf
00000090: 8393 1397 18e2 bf3f c7e6 e30a f4af b1bf
000000a0: b471 37bf 5bfb 94bf 9586 4ba7 706b b0bf
000000b0: 41a6 bd34 fbf6 b23f cbff a9b3 5f0e b8bf
000000c0: 5ab2 cec4 6c8b a3bf 4844 05a9 c299 cdbf
000000d0: 3735 e283 a79c edbf a3a5 ffa6 e35e adbf
000000e0: 3a5f 31bf 38f9 adbf 5cce 5170 f0bc cb3f
000000f0: df09 2a37 49a7 d5bf 0235 6d8d 9090 abbf

b1 f8 [1, 1]
-0.2566716238553413
00000000: 1d46 91d1 4e6d d0bf
