data/params.npz (npz, 202190 bytes, 4 tensors)

W0 f8 [32, 784]
000000 00 c3 ec ed 3a e4 a6 3f 16 7e 12 c4 47 55 a3 3f
       0.044710008185921524 0.03776001232585828
000010 a4 d3 00 79 8d 00 92 3f 80 f7 d2 08 01 31 45 3f
       0.017580233107043278 0.0006467108775252001
000020 c8 1a 2a 45 15 fc 96 3f 04 fc b6 e5 0b 7d 9c 3f
       0.022445995661224655 0.02782076444213645
000030 ce 78 3a 32 27 89 a6 3f bd e1 d1 a9 df d8 7f bf
       0.0440151451887104 -0.007775186238284379
000040 40 69 26 20 70 92 96 bf 49 dd dc 29 b0 93 a0 bf
       -0.02204299160221379 -0.03237677107829968
000050 f5 cf 76 93 96 9b 61 3f 73 73 da cb 08 ab 75 3f
       0.002149385541736488 0.005290064201884148
000060 b0 60 dc e7 14 49 aa bf 6e dc 31 1d 1a c2 c9 bf
       -0.051338818839384515 -0.20123602319265238
000070 fb 40 03 da 74 4f bc bf 72 b6 4c 86 d9 53 c1 bf
       -0.1105874092347711 -0.13537138993835957
000080 1b a6 41 4c e3 a5 b1 bf 7a 55 85 b1 95 9d 9f bf
       -0.06893749820451271 -0.030874575576793607
000090 90 1a 0b 17 9b 79 a5 3f 23 de 43 38 36 ed 9d bf
       0.04194340378085315 -0.029225203689717937
0000a0 f9 ce c4 fe ab 09 9c 3f 50 5a 1a b6 df 1f 92 3f
       0.027380645203449714 0.01769971417396682
0000b0 d1 21 4c 0e 4d cb 71 bf e4 ae 5c af 43 4c 9e 3f
       -0.004344273566637872 0.02958780057740186
0000c0 87 0a 5f 93 0a b9 85 3f e8 c5 af ad 91 bc 8b bf
       0.010606844541944284 -0.013543260682101058
0000d0 3a c5 4b 11 f2 53 a4 3f 7a 47 d6 87 88 87 9b bf
       0.03970295392162844 -0.026884206095537412
0000e0 a0 59 34 0f e9 73 8e 3f 0d f7 cf 6a e7 d7 93 bf
       0.014869519020561495 -0.019378295797642987
0000f0 f8 21 b4 0e 73 ab a4 bf 44 c5 4b 99 98 f2 96 bf
       -0.040370555443647704 -0.022409805637783067
000100 5a ae 40 42 29 75 90 bf 84 07 d5 e3 6c 31 a9 bf
       -0.016071934384099464 -0.04920521050600171
000110 ed 5a 21 f3 2c 46 95 bf 8f 5d b3 0b af 53 9a 3f
       -0.02077551111173197 0.025709853257323053
000120 8b 38 34 0f 33 f2 a0 3f 58 0b b8 6c f9 26 a4 3f
       0.0330978351649814 0.03935985042701046
000130 2e 89 7e f7 69 71 bb 3f 9f ce 50 69 73 32 b8 3f
       0.10719930927601659 0.0945198185079854
000140 4f 03 d4 00 17 89 aa 3f 63 73 4b b3 72 1e a8 bf
       0.05182716260060848 -0.047107300173343324
000150 88 d9 0d 43 51 2c 6c 3f e7 15 86 38 d3 f9 ab 3f
       0.0034391009471008184 0.05464038910853813
000160 6d a6 c0 4e ba 18 90 bf 1b 3a a3 f6 19 a2 86 bf
       -0.01571932893435817 -0.011051371421129599
000170 9b 0b ad 0a 9e 49 7f bf 86 94 89 24 4c 07 b2 3f
       -0.007638566351320454 0.07042384998347204
000180 75 4a fc 2f 26 4a 82 3f d5 6c d0 2d 82 c7 a4 bf
       0.008930490817452988 -0.040584629147099406
000190 8a 2e 35 c7 24 04 8d bf ef 11 f5 4e 4b 43 78 3f
       -0.01416805966314107 0.005923551724951611
0001a0 bb 84 cf c3 6a 8b 89 bf a5 a1 f1 64 68 9c a6 bf
       -0.01247294817034327 -0.04416204673981675
0001b0 54 a9 28 76 44 1b 96 3f 80 56 95 b5 23 71 31 bf
       0.021588391982882385 -0.0002661430531437428
0001c0 5d 03 33 22 52 62 a3 3f 1b 21 f2 8c da af a6 bf
       0.03785950343581732 -0.04431040735750199
0001d0 9b 23 62 21 45 c1 93 3f 43 38 64 8e eb 99 90 bf
       0.019291954195555055 -0.016212158742796367
0001e0 5a 45 03 f3 95 b9 b2 bf 58 10 d3 a7 4d 4d a3 bf
       -0.07314431364945531 -0.03769915269506957
0001f0 32 f8 07 f6 dc 41 a7 bf ee 31 00 95 2b 78 a4 bf
       -0.04542437079724983 -0.039979326189584316
000200 f9 57 9c 85 8e 2c 9f 3f 04 41 e0 af 28 88 bd 3f
       0.030443407921744357 0.11535887044761145
000210 7e 96 41 24 1c 13 b9 3f 1c 6f b2 a7 56 2b ab bf
       0.0979478443637962 -0.053065021487070235
000220 72 b8 bb 82 68 cd bd bf 41 f0 23 f7 d1 dd b9 bf
       -0.1164155310795836 -0.10104095729542541
000230 1d aa f5 d7 27 ac aa bf 4e 14 0e 60 3d 97 b0 3f
       -0.052094693290957596 0.06480773539631565
000240 37 ca 55 69 86 be 6d bf 5c 89 e5 ee f8 22 a4 3f
       -0.003630888483422436 0.039329318201242386
000250 19 66 87 2a 8c 1f b3 3f bf e1 d0 d7 78 74 ab 3f
       0.0747001270132376 0.05362298616859417
000260 cf 39 b4 6e 37 7c b2 3f c1 5b aa de e1 5a a5 3f
       0.07220789387449787 0.041709001952021214
000270 70 a1 53 1a 62 f1 65 bf 6a 52 0a e3 fa ae a2 bf
       -0.0026785770484034008 -0.03649124166000635
000280 1c b2 00 cc 67 ae 8a bf 58 f6 70 f2 30 68 7d 3f
       -0.013027964509171368 0.007179442595825224
000290 00 03 da 64 9a 34 67 3f 28 cf e1 52 9b 82 88 3f
       0.002832700300871571 0.01196786257444378
0002a0 12 b6 e9 18 e2 b2 98 3f bd ee 7d 34 f1 1d 85 bf
       0.0241198852258347 -0.01031101647799148
0002b0 de ec ca e0 0e 0c a8 bf af 16 80 96 21 04 a2 bf
       -0.04696699613620024 -0.03518776857531002
0002c0 48 0c e2 a4 b3 60 88 bf 57 f5 5d 12 dc bd 92 3f
       -0.011903193921403724 0.018302382107767325
0002d0 a1 9d 3c 81 03 49 a0 bf 06 a7 e5 88 fd 35 a7 bf
       -0.031807050252889775 -0.04533378883463794
0002e0 83 45 13 86 c1 31 95 3f e8 a9 44 0d f8 ac 96 bf
       0.02069761639433444 -0.022144199189975483
0002f0 36 19 93 a0 6f 3b b1 3f fd 83 9c 6e 0a c4 a2 3f
       0.06731317205694584 0.03665192222820932
000300 8c ef c4 f6 93 c8 86 3f f0 ee f0 7d 8f 5c b7 3f
       0.01112475964384154 0.09125611138091094
000310 24 84 e2 b4 2e 38 71 3f 29 77 bb 63 f0 d2 a4 bf
       0.004203970382293174 -0.04067183701930183
000320 36 07 d6 4e 8a d4 81 bf 31 cd d3 ba e1 d4 a4 3f
       -0.008706169634709587 0.040686658912728275
000330 3f d8 68 e2 05 43 bd 3f f0 64 8d c5 d2 6d b4 3f
       0.11430393960549255 0.07980077097944949
000340 06 eb 2e 2c 90 80 b8 3f d7 06 9e 42 ba d3 92 3f
       0.0957117183560677 0.018385801616665667
000350 6a 86 7d 27 df 49 8e 3f 5b da d3 b9 c0 ba a3 3f
       0.014789336578988361 0.038534186061885044
000360 6f 51 9f 90 57 cf 87 bf 17 9f c2 75 ce 25 4a bf
       -0.011625942326568077 -0.000797963915393193
000370 54 4c 82 df b0 61 a6 3f 14 b5 88 e0 47 16 91 bf
       0.04371407249814099 -0.016686556891888207
000380 6c 4e cf 31 35 f2 99 3f 80 e5 ed f3 ff d3 90 3f
       0.025338011899135912 0.016433715117704306
000390 1f ce 54 a6 1c df 8e 3f 53 0b c6 10 05 0f b2 bf
       0.015073989702250988 -0.07054168376457186
0003a0 d9 43 e5 7f 84 96 a3 bf bc 52 76 c4 18 1d 74 3f
       -0.03825773297524621 0.004910561321044223
0003b0 dd 84 ef b4 01 8b ab 3f 6e c5 51 9e e0 a1 a5 3f
       0.053794911705844696 0.04225065167055218
0003c0 ba 4d b0 b3 50 81 b5 3f cd b2 47 45 d7 8b a6 3f
       0.08400444399767695 0.044035651404418986
0003d0 8b ca 7b a3 80 b3 a9 bf 99 08 2d 0f 57 28 c6 bf
       -0.050197620350350546 -0.17310608140002584
0003e0 c2 2b 38 9d 46 4b ae bf 6a b1 eb f4 0c 40 d1 bf
       -0.05916805905516 -0.26953433912310365
0003f0 11 b1 75 44 88 ff c8 bf 87 c7 c6 a7 7a b5 b0 bf
       -0.19529822676430134 -0.0652691516504814
000400 b6 48 61 a3 55 39 b8 bf 01 7f 56 9e eb 73 a4 bf
       -0.09462485541124263 -0.039946902349809583
000410 1c 74 47 c2 35 59 6e bf ae e6 77 3a ac 99 ab 3f
       -0.0037046480158395966 0.053906805169345304
000420 24 fe c3 27 e3 f0 a9 3f e8 6c db 99 50 e8 a1 bf
       0.050665949444006736 -0.03497554662836838
000430 6f 96 2c 69 78 b4 9a bf b2 97 6f 99 de f6 b0 bf
       -0.02607906476909821 -0.06626693006509646
000440 60 7b fe a7 22 85 ab bf e5 73 1a 89 43 24 a7 bf
       -0.05375011730870116 -0.04519854591965337
000450 4c e2 c6 70 ce d3 94 3f ef 14 16 86 ae 31 9c bf
       0.02033922732673181 -0.02753327077291073
000460 53 05 b7 95 4f 13 9b bf 75 07 92 22 c9 e9 a3 bf
       -0.026440852654336777 -0.03889301821710848
000470 23 e0 a3 47 20 2c 9a bf 59 53 8a 26 0b a7 b7 bf
       -0.02555895268685061 -0.09239263239790087
000480 23 19 27 71 86 9e 80 3f d0 09 33 eb f7 8d 92 bf
       0.008114862754962154 -0.018119691591673093
000490 75 f0 65 c0 52 a8 ad bf 8d cd 83 f1 f0 66 bd 3f
       -0.0579248294697842 0.11485200783118028
0004a0 28 06 ea f4 3f f6 bc 3f bd fe 77 b0 46 48 c3 bf
       0.11313247422551653 -0.15064319244992488
0004b0 29 02 45 57 78 6e d7 bf 9e 52 a9 08 fe de d8 bf
       -0.3661175586931074 -0.3886103710731649
0004c0 f8 6a ec 9d 33 09 cc bf 64 b0 1c 79 bc ea da bf
       -0.21903081141575576 -0.4205771620497727
0004d0 60 81 e1 e3 b0 bb c9 bf 64 06 76 7c 54 2d c4 bf
       -0.20104037405964004 -0.15763336255263305
0004e0 68 a4 13 d8 7a 1c b2 bf 30 ff 96 ee 33 10 ba bf
       -0.07074706816969611 -0.10180973601290755
0004f0 8d c0 bb c5 da d0 b9 bf e6 56 12 39 7d 59 a4 bf
       -0.10084311797595742 -0.03974524804759287
000500 f7 d8 26 35 be 25 82 3f b4 fd 21 3f 2c 93 a8 3f
       0.008861051556646944 0.047997839647901414
000510 49 be cb 95 13 bf bc bf 32 71 df 8a ac 0f af bf
       -0.11229059607625759 -0.06066645808434358
000520 04 fa b4 22 33 97 aa bf 0d 79 17 af 1f 32 b4 bf
       -0.051934812533080105 -0.07888982796382411
000530 4f 94 37 d2 23 07 a5 bf d1 07 25 1e ce 80 83 3f
       -0.041070098315494456 0.009523020071927764
000540 7b 1d a3 21 34 0c 97 bf 95 40 6a 34 b6 64 74 3f
       -0.022507490685510483 0.0049788586972142794
000550 76 11 f8 4c b4 de b6 bf 36 e3 ab f7 6c c4 b2 bf
       -0.08933569792868021 -0.07330971762338553
000560 6a 42 60 53 2d 59 91 3f ed 5f 31 23 0b a8 b1 3f
       0.016941745962017064 0.0689703904075711
000570 37 98 d6 37 df af a0 3f 77 dc db 2b 0a 62 9f bf
       0.03259179646129023 -0.030647429396563255
000580 f5 a8 96 06 00 71 ca bf 45 6b 55 6b 30 64 c9 bf
       -0.20657348939614165 -0.19837002983953247
000590 34 a0 c9 cb 2c ec d2 bf c1 ff 70 91 01 03 c1 bf
       -0.2956649770844735 -0.13290423967009526
0005a0 e8 f0 de f6 0c 3c a4 3f b9 7b e7 d3 41 ed a2 3f
       0.03952065003929467 0.03696637832376077
0005b0 8b c8 90 bf 4f a7 b5 3f 5c d2 b6 1d 48 11 ab bf
       0.0845842211427074 -0.05286622393342519
0005c0 26 27 bb b4 dd 35 36 bf 42 9e ae 96 7d e2 95 3f
       -0.0003389040254942903 0.0213718054980332
0005d0 63 9c 15 f1 a1 0d b9 bf 34 15 83 09 e9 72 b2 bf
       -0.09786426673746144 -0.0720658920500526
0005e0 cc 69 e3 fe 2d 41 a8 bf b0 1d 91 b6 fa 85 91 bf
       -0.04737228142194602 -0.017112653153416424
0005f0 1c 19 64 35 1c 4c 9e bf 4e 7d a1 09 2d 48 b1 bf
       -0.029587212332466625 -0.0675075672638645
000600 a4 e7 24 cf bb c8 8a bf cf ba f8 38 df 57 aa bf
       -0.013078181513822625 -0.05145165987447841
000610 cf 72 e4 54 e2 d4 82 bf 7d bc 41 89 ca 5e 85 3f
       -0.009195106712064497 0.010434706033463076
000620 ff 08 cc 3d 85 05 b4 bf 31 c8 74 1b c1 0e 9b bf
       -0.07820923575130577 -0.02642347078398916
000630 ae 55 3a 5e b6 81 ba bf e4 48 be 10 87 25 a8 bf
       -0.10354175377354721 -0.047161312860355215
000640 7d 1e b2 e5 fb 42 8a 3f a3 86 3b 2f cd 98 ae 3f
       0.012823074290522424 0.05975953294342886
000650 77 e9 07 b3 bf 3f b0 bf 5f 7d ee 1b 5b 7e cb bf
       -0.06347272988197071 -0.21479357589576417
000660 b2 4f c9 6a ac a3 d2 bf 21 46 dd 3a e8 bb d5 bf
       -0.29123983791691466 -0.3395939421508008
000670 51 78 9c 42 17 57 b4 bf a3 33 5a 24 1d 18 cb 3f
       -0.07945390106439844 0.21167339587227926
000680 b3 c2 f5 20 d1 ed d9 3f 2d e3 9b 15 41 1b c7 3f
       0.40514019221067626 0.18051923327564037
000690 b7 32 43 7d 32 28 c1 3f 48 e6 a9 c7 3f 35 58 bf
       0.1340392219193711 -0.0014775393343867838
0006a0 81 4b 63 c0 6e 8f c9 bf c8 ee cc 54 47 f2 c9 bf
       -0.1996897162813092 -0.20270625725412672
0006b0 2b 01 d3 de f7 b5 9d bf c6 10 b0 19 da 0d 9b bf
       -0.02901446626197061 -0.02642002851281757
0006c0 39 20 61 a2 2f 33 b9 3f 96 da 70 e3 22 95 ac bf
       0.09843728746739168 -0.055825319541715476
0006d0 56 dc 68 5d 7b 67 86 3f 43 f6 12 0b b2 f5 86 bf
       0.010939563549170622 -0.011210814440683175
0006e0 b6 66 7e 56 78 f5 aa bf 36 2a 25 78 a3 6c b5 bf
       -0.05265403800804107 -0.0836889427493269
0006f0 9c c7 44 d8 7f 5e bb bf de 08 b0 2a 2a aa a1 bf
       -0.1069106963157353 -0.034501378737347585
000700 e6 d2 2d be ff c9 b2 bf 91 8c 10 3c 25 c9 b5 bf
       -0.07339476006547904 -0.08510048595830912
000710 b2 ba 9e 4b b9 83 b6 bf b0 36 fe 7a 77 a4 b7 bf
       -0.08794744583313266 -0.09235331299552274
000720 88 6d 62 ff 62 7f a7 3f e2 f0 5e 2c b6 1f a7 bf
       0.04589375846372962 -0.045163815418591616
000730 5b ea 6e 51 e6 a1 cb bf 60 1a 73 5c 31 3a d0 bf
       -0.21587828613503998 -0.2535518076732952
000740 0b 6b ed b2 2f d7 d8 bf 70 6d 13 70 af 43 b7 3f
       -0.3881339309061082 0.09087654577472448
000750 e9 ee b7 8e 5b b6 d1 3f e3 91 98 88 c1 e3 a0 3f
       0.2767552274451491 0.03298764030867909
000760 df 5c e0 72 4b e9 82 bf 95 23 62 a5 cc 98 b7 bf
       -0.009234036868333849 -0.09217528379134728
000770 58 cf f0 9f f9 8c c2 3f 49 e9 7e 6b 30 74 c3 3f
       0.14492721852877355 0.15198331116500644
000780 5a 37 1e 87 76 3e a9 3f d7 6d 6d ca 07 31 cc bf
       0.04930467986478844 -0.2202462900557822
000790 e3 dc 0c 88 de 4f c8 bf a6 8e 9c 58 0b 47 b8 bf
       -0.18993741648748771 -0.09483405030601463
0007a0 14 bc df b4 f7 16 ab bf cc ae 13 0d ab 74 a7 3f
       -0.05290960390981794 0.04581198248510318
0007b0 c0 0a 4a de 2c 37 a4 bf 8e af f9 60 67 9a 97 bf
       -0.039483453879275654 -0.023049941343216633
0007c0 f8 8d 50 04 98 c1 76 3f b9 8d 30 b0 40 1b a4 bf
       0.00555571919997843 -0.03927042151215283
0007d0 a2 ba d9 45 13 81 b2 bf 81 c6 d3 58 eb 3f b2 bf
       -0.07228203254065105 -0.07128783148416497
0007e0 f2 ae 71 3b 37 02 98 bf 63 19 8c 7f 5c 33 b5 bf
       -0.023445952418497513 -0.08281496156641803
0007f0 e3 43 70 86 e4 62 c4 bf 5d 35 11 40 05 93 89 bf
       -0.15926796497708925 -0.012487450616527946

W1 f8 [1, 32]
000000 9c 96 ff 45 0f 8f 04 40 61 fc 89 db a3 d9 fc bf
       2.5698533505081524 -1.803134782385108
000010 0e 6c da 5b b4 4d cb 3f 36 84 e2 8a 00 b1 ef bf
       0.21330885396022875 -0.9903567040056547
000020 25 28 88 06 2b 1d 06 40 b2 c0 d1 da 97 b9 eb bf
       2.7642422209073794 -0.8664054178061831
000030 09 c3 37 af 37 fa c0 bf a0 88 b4 92 5e f5 04 40
       -0.1326360326343308 2.6198092900604735
000040 ee b1 7c 70 e2 1c f4 bf de 62 e4 be 70 c8 cc bf
       -1.2570518869425729 -0.22486695595650635
000050 e4 1c a4 46 3d ad fc 3f 10 00 4c b0 84 c3 f9 3f
       1.792294765416778 1.6102339636418073
000060 56 22 f1 55 a2 62 ef bf 72 1b 68 6b 52 f9 05 c0
       -0.9807902983239483 -2.746739234079933
000070 72 d5 a8 85 9e 9c ca 3f fe 2a 15 5e d2 f2 b2 3f
       0.20790463949530708 0.07401766583386046
000080 29 cf 17 5c 1f 9a 02 40 3e 72 ab db 40 fa 15 40
       2.3252551264539716 5.494388038958787
000090 81 d5 c4 17 35 58 08 40 25 68 8e 46 0d 59 02 40
       3.043070016569516 2.293482352467452
0000a0 82 ee 28 d3 4e ef fd 3f 04 ec 59 b2 7a 7b f3 bf
       1.8709247826035669 -1.217646309551811
0000b0 70 c3 4d 31 14 b4 00 c0 41 80 1a 39 44 a9 f3 bf
       -2.087929139314319 -1.2288248282057028
0000c0 08 3d fc 2b f3 9f ff 3f 66 b0 74 26 81 e6 ec 3f
       1.9765502660919214 0.9031377554979485
0000d0 93 2a bb c4 fd 4d 06 c0 97 b5 dc dc ab 6f f7 bf
       -2.788081681215155 -1.4647635104587147
0000e0 98 40 8b 60 ed 21 02 c0 27 16 af 61 21 ee f0 3f
       -2.2665660421844898 1.0581373039034447
0000f0 dc 92 78 23 10 c3 03 40 e2 da 80 0b e0 5c 15 c0
       2.4702456256076015 -5.340698413600622

b0 f8 [32, 1]
000000 65 41 28 3b d9 3a c8 bf ae 3e cd 76 34 31 d1 3f
       -0.1892959154943227 0.2686282310651035
000010 d6 ba 58 b3 f2 8f b0 bf 03 e5 45 22 ad e5 9f 3f
       -0.06469647291735767 0.03114958306966732
000020 84 66 d0 f7 4c a8 c7 bf 23 ae 83 61 c1 5a ba bf
       -0.18482362842842204 -0.10294731741640155
000030 99 9b c2 6a 13 92 b5 bf 81 14 89 58 f9 5b dd bf
       -0.08426019054841873 -0.45873864790002733
000040 15 fa 50 84 99 19 b6 3f 3e 00 9e ec ab 4b b9 bf
       0.08632812004450614 -0.09881090666567702
000050 da d8 be 6b af 94 bb bf 1e 25 38 6a f2 56 c0 bf
       -0.10773750668053897 -0.12765340982904488
000060 d8 de 3c a6 5f 5b b1 3f be d4 6a b8 ad a0 b0 3f
       0.06780050095118939 0.06495176079154683
000070 86 02 76 73 6c 49 b2 bf 12 64 a1 9d 2b 44 b3 bf
       -0.0714328557860516 -0.07525894735717056
000080 75 98 fb 0a 2b ad de bf 0f 84 c6 7b 4d ab e2 bf
       -0.47931934425867634 -0.5834109704484279
000090 bd a0 66 37 4e cc ab bf 1d 56 cc fc 5d 5e ca bf
       -0.0542931025150337 -0.20600485652600833
0000a0 88 17 01 25 8e 5b bd bf c9 6b ec f5 bc 4b b5 3f
       -0.11467827227997252 0.08318692211143665
0000b0 85 c9 4b 62 a1 b2 d0 3f 58 cb 8e 11 f6 eb af 3f
       0.26090273474905984 0.06234711613014693
0000c0 6d a0 54 a6 3a 4b c4 bf cf 8d 2f 35 c2 70 b7 bf
       -0.15854580995187764 -0.0915643100593606
0000d0 bb fa a3 ad 01 88 de 3f b8 d9 50 5b 47 a3 c4 3f
       0.47705118138393815 0.1612328716161764
0000e0 77 a5 ca d3 69 24 b9 3f 57 6c 78 f7 eb 0b b0 bf
       0.098211874205523 -0.06268191138990296
0000f0 7f 41 de 15 c4 89 cb bf a1 b2 b7 2c e0 1a e2 3f
       -0.215141783407045 0.5657807229414012

b1 f8 [1, 1]
000000 fd d5 37 02 db 14 d8 3f
       0.3762729188595982
